{"format": "layers-model", "generatedBy": "keras v2.12.0", "convertedBy": "TensorFlow.js Converter v3.18.0", "modelTopology": {"keras_version": "2.12.0", "backend": "tensorflow", "model_config": {"class_name": "Functional", "config": {"name": "model_7", "trainable": true, "layers": [{"class_name": "InputLayer", "config": {"batch_input_shape": [null, 150, 150, 3], "dtype": "float32", "sparse": false, "ragged": false, "name": "input_8"}, "name": "input_8", "inbound_nodes": []}, {"class_name": "Conv2D", "config": {"name": "conv2d_658", "trainable": false, "dtype": "float32", "filters": 32, "kernel_size": [3, 3], "strides": [2, 2], "padding": "valid", "data_format": "channels_last", "dilation_rate": [1, 1], "groups": 1, "activation": "linear", "use_bias": false, "kernel_initializer": {"class_name": "GlorotUniform", "config": {"seed": null}}, "bias_initializer": {"class_name": "Zeros", "config": {}}, "kernel_regularizer": null, "bias_regularizer": null, "activity_regularizer": null, "kernel_constraint": null, "bias_constraint": null}, "name": "conv2d_658", "inbound_nodes": [[["input_8", 0, 0, {}]]]}, {"class_name": "BatchNormalization", "config": {"name": "batch_normalization_658", "trainable": false, "dtype": "float32", "axis": [3], "momentum": 0.99, "epsilon": 0.001, "center": true, "scale": false, "beta_initializer": {"class_name": "Zeros", "config": {}}, "gamma_initializer": {"class_name": "Ones", "config": {}}, "moving_mean_initializer": {"class_name": "Zeros", "config": {}}, "moving_variance_initializer": {"class_name": "Ones", "config": {}}, "beta_regularizer": null, "gamma_regularizer": null, "beta_constraint": null, "gamma_constraint": null}, "name": "batch_normalization_658", "inbound_nodes": [[["conv2d_658", 0, 0, {}]]]}, {"class_name": "Activation", "config": {"name": "activation_658", "trainable": false, "dtype": "float32", "activation": "relu"}, "name": "activation_658", "inbound_nodes": [[["batch_normalization_658", 0, 0, {}]]]}, {"class_name": "Conv2D", "config": {"name": "conv2d_659", "trainable": false, "dtype": "float32", "filters": 32, "kernel_size": [3, 3], "strides": [1, 1], "padding": "valid", "data_format": "channels_last", "dilation_rate": [1, 1], "groups": 1, "activation": "linear", "use_bias": false, "kernel_initializer": {"class_name": "GlorotUniform", "config": {"seed": null}}, "bias_initializer": {"class_name": "Zeros", "config": {}}, "kernel_regularizer": null, "bias_regularizer": null, "activity_regularizer": null, "kernel_constraint": null, "bias_constraint": null}, "name": "conv2d_659", "inbound_nodes": [[["activation_658", 0, 0, {}]]]}, {"class_name": "BatchNormalization", "config": {"name": "batch_normalization_659", "trainable": false, "dtype": "float32", "axis": [3], "momentum": 0.99, "epsilon": 0.001, "center": true, "scale": false, "beta_initializer": {"class_name": "Zeros", "config": {}}, "gamma_initializer": {"class_name": "Ones", "config": {}}, "moving_mean_initializer": {"class_name": "Zeros", "config": {}}, "moving_variance_initializer": {"class_name": "Ones", "config": {}}, "beta_regularizer": null, "gamma_regularizer": null, "beta_constraint": null, "gamma_constraint": null}, "name": "batch_normalization_659", "inbound_nodes": [[["conv2d_659", 0, 0, {}]]]}, {"class_name": "Activation", "config": {"name": "activation_659", "trainable": false, "dtype": "float32", "activation": "relu"}, "name": "activation_659", "inbound_nodes": [[["batch_normalization_659", 0, 0, {}]]]}, {"class_name": "Conv2D", "config": {"name": "conv2d_660", "trainable": false, "dtype": "float32", "filters": 64, "kernel_size": [3, 3], "strides": [1, 1], "padding": "same", "data_format": "channels_last", "dilation_rate": [1, 1], "groups": 1, "activation": "linear", "use_bias": false, "kernel_initializer": {"class_name": "GlorotUniform", "config": {"seed": null}}, "bias_initializer": {"class_name": "Zeros", "config": {}}, "kernel_regularizer": null, "bias_regularizer": null, "activity_regularizer": null, "kernel_constraint": null, "bias_constraint": null}, "name": "conv2d_660", "inbound_nodes": [[["activation_659", 0, 0, {}]]]}, {"class_name": "BatchNormalization", "config": {"name": "batch_normalization_660", "trainable": false, "dtype": "float32", "axis": [3], "momentum": 0.99, "epsilon": 0.001, "center": true, "scale": false, "beta_initializer": {"class_name": "Zeros", "config": {}}, "gamma_initializer": {"class_name": "Ones", "config": {}}, "moving_mean_initializer": {"class_name": "Zeros", "config": {}}, "moving_variance_initializer": {"class_name": "Ones", "config": {}}, "beta_regularizer": null, "gamma_regularizer": null, "beta_constraint": null, "gamma_constraint": null}, "name": "batch_normalization_660", "inbound_nodes": [[["conv2d_660", 0, 0, {}]]]}, {"class_name": "Activation", "config": {"name": "activation_660", "trainable": false, "dtype": "float32", "activation": "relu"}, "name": "activation_660", "inbound_nodes": [[["batch_normalization_660", 0, 0, {}]]]}, {"class_name": "MaxPooling2D", "config": {"name": "max_pooling2d_28", "trainable": false, "dtype": "float32", "pool_size": [3, 3], "padding": "valid", "strides": [2, 2], "data_format": "channels_last"}, "name": "max_pooling2d_28", "inbound_nodes": [[["activation_660", 0, 0, {}]]]}, {"class_name": "Conv2D", "config": {"name": "conv2d_661", "trainable": false, "dtype": "float32", "filters": 80, "kernel_size": [1, 1], "strides": [1, 1], "padding": "valid", "data_format": "channels_last", "dilation_rate": [1, 1], "groups": 1, "activation": "linear", "use_bias": false, "kernel_initializer": {"class_name": "GlorotUniform", "config": {"seed": null}}, "bias_initializer": {"class_name": "Zeros", "config": {}}, "kernel_regularizer": null, "bias_regularizer": null, "activity_regularizer": null, "kernel_constraint": null, "bias_constraint": null}, "name": "conv2d_661", "inbound_nodes": [[["max_pooling2d_28", 0, 0, {}]]]}, {"class_name": "BatchNormalization", "config": {"name": "batch_normalization_661", "trainable": false, "dtype": "float32", "axis": [3], "momentum": 0.99, "epsilon": 0.001, "center": true, "scale": false, "beta_initializer": {"class_name": "Zeros", "config": {}}, "gamma_initializer": {"class_name": "Ones", "config": {}}, "moving_mean_initializer": {"class_name": "Zeros", "config": {}}, "moving_variance_initializer": {"class_name": "Ones", "config": {}}, "beta_regularizer": null, "gamma_regularizer": null, "beta_constraint": null, "gamma_constraint": null}, "name": "batch_normalization_661", "inbound_nodes": [[["conv2d_661", 0, 0, {}]]]}, {"class_name": "Activation", "config": {"name": "activation_661", "trainable": false, "dtype": "float32", "activation": "relu"}, "name": "activation_661", "inbound_nodes": [[["batch_normalization_661", 0, 0, {}]]]}, {"class_name": "Conv2D", "config": {"name": "conv2d_662", "trainable": false, "dtype": "float32", "filters": 192, "kernel_size": [3, 3], "strides": [1, 1], "padding": "valid", "data_format": "channels_last", "dilation_rate": [1, 1], "groups": 1, "activation": "linear", "use_bias": false, "kernel_initializer": {"class_name": "GlorotUniform", "config": {"seed": null}}, "bias_initializer": {"class_name": "Zeros", "config": {}}, "kernel_regularizer": null, "bias_regularizer": null, "activity_regularizer": null, "kernel_constraint": null, "bias_constraint": null}, "name": "conv2d_662", "inbound_nodes": [[["activation_661", 0, 0, {}]]]}, {"class_name": "BatchNormalization", "config": {"name": "batch_normalization_662", "trainable": false, "dtype": "float32", "axis": [3], "momentum": 0.99, "epsilon": 0.001, "center": true, "scale": false, "beta_initializer": {"class_name": "Zeros", "config": {}}, "gamma_initializer": {"class_name": "Ones", "config": {}}, "moving_mean_initializer": {"class_name": "Zeros", "config": {}}, "moving_variance_initializer": {"class_name": "Ones", "config": {}}, "beta_regularizer": null, "gamma_regularizer": null, "beta_constraint": null, "gamma_constraint": null}, "name": "batch_normalization_662", "inbound_nodes": [[["conv2d_662", 0, 0, {}]]]}, {"class_name": "Activation", "config": {"name": "activation_662", "trainable": false, "dtype": "float32", "activation": "relu"}, "name": "activation_662", "inbound_nodes": [[["batch_normalization_662", 0, 0, {}]]]}, {"class_name": "MaxPooling2D", "config": {"name": "max_pooling2d_29", "trainable": false, "dtype": "float32", "pool_size": [3, 3], "padding": "valid", "strides": [2, 2], "data_format": "channels_last"}, "name": "max_pooling2d_29", "inbound_nodes": [[["activation_662", 0, 0, {}]]]}, {"class_name": "Conv2D", "config": {"name": "conv2d_666", "trainable": false, "dtype": "float32", "filters": 64, "kernel_size": [1, 1], "strides": [1, 1], "padding": "same", "data_format": "channels_last", "dilation_rate": [1, 1], "groups": 1, "activation": "linear", "use_bias": false, "kernel_initializer": {"class_name": "GlorotUniform", "config": {"seed": null}}, "bias_initializer": {"class_name": "Zeros", "config": {}}, "kernel_regularizer": null, "bias_regularizer": null, "activity_regularizer": null, "kernel_constraint": null, "bias_constraint": null}, "name": "conv2d_666", "inbound_nodes": [[["max_pooling2d_29", 0, 0, {}]]]}, {"class_name": "BatchNormalization", "config": {"name": "batch_normalization_666", "trainable": false, "dtype": "float32", "axis": [3], "momentum": 0.99, "epsilon": 0.001, "center": true, "scale": false, "beta_initializer": {"class_name": "Zeros", "config": {}}, "gamma_initializer": {"class_name": "Ones", "config": {}}, "moving_mean_initializer": {"class_name": "Zeros", "config": {}}, "moving_variance_initializer": {"class_name": "Ones", "config": {}}, "beta_regularizer": null, "gamma_regularizer": null, "beta_constraint": null, "gamma_constraint": null}, "name": "batch_normalization_666", "inbound_nodes": [[["conv2d_666", 0, 0, {}]]]}, {"class_name": "Activation", "config": {"name": "activation_666", "trainable": false, "dtype": "float32", "activation": "relu"}, "name": "activation_666", "inbound_nodes": [[["batch_normalization_666", 0, 0, {}]]]}, {"class_name": "Conv2D", "config": {"name": "conv2d_664", "trainable": false, "dtype": "float32", "filters": 48, "kernel_size": [1, 1], "strides": [1, 1], "padding": "same", "data_format": "channels_last", "dilation_rate": [1, 1], "groups": 1, "activation": "linear", "use_bias": false, "kernel_initializer": {"class_name": "GlorotUniform", "config": {"seed": null}}, "bias_initializer": {"class_name": "Zeros", "config": {}}, "kernel_regularizer": null, "bias_regularizer": null, "activity_regularizer": null, "kernel_constraint": null, "bias_constraint": null}, "name": "conv2d_664", "inbound_nodes": [[["max_pooling2d_29", 0, 0, {}]]]}, {"class_name": "Conv2D", "config": {"name": "conv2d_667", "trainable": false, "dtype": "float32", "filters": 96, "kernel_size": [3, 3], "strides": [1, 1], "padding": "same", "data_format": "channels_last", "dilation_rate": [1, 1], "groups": 1, "activation": "linear", "use_bias": false, "kernel_initializer": {"class_name": "GlorotUniform", "config": {"seed": null}}, "bias_initializer": {"class_name": "Zeros", "config": {}}, "kernel_regularizer": null, "bias_regularizer": null, "activity_regularizer": null, "kernel_constraint": null, "bias_constraint": null}, "name": "conv2d_667", "inbound_nodes": [[["activation_666", 0, 0, {}]]]}, {"class_name": "BatchNormalization", "config": {"name": "batch_normalization_664", "trainable": false, "dtype": "float32", "axis": [3], "momentum": 0.99, "epsilon": 0.001, "center": true, "scale": false, "beta_initializer": {"class_name": "Zeros", "config": {}}, "gamma_initializer": {"class_name": "Ones", "config": {}}, "moving_mean_initializer": {"class_name": "Zeros", "config": {}}, "moving_variance_initializer": {"class_name": "Ones", "config": {}}, "beta_regularizer": null, "gamma_regularizer": null, "beta_constraint": null, "gamma_constraint": null}, "name": "batch_normalization_664", "inbound_nodes": [[["conv2d_664", 0, 0, {}]]]}, {"class_name": "BatchNormalization", "config": {"name": "batch_normalization_667", "trainable": false, "dtype": "float32", "axis": [3], "momentum": 0.99, "epsilon": 0.001, "center": true, "scale": false, "beta_initializer": {"class_name": "Zeros", "config": {}}, "gamma_initializer": {"class_name": "Ones", "config": {}}, "moving_mean_initializer": {"class_name": "Zeros", "config": {}}, "moving_variance_initializer": {"class_name": "Ones", "config": {}}, "beta_regularizer": null, "gamma_regularizer": null, "beta_constraint": null, "gamma_constraint": null}, "name": "batch_normalization_667", "inbound_nodes": [[["conv2d_667", 0, 0, {}]]]}, {"class_name": "Activation", "config": {"name": "activation_664", "trainable": false, "dtype": "float32", "activation": "relu"}, "name": "activation_664", "inbound_nodes": [[["batch_normalization_664", 0, 0, {}]]]}, {"class_name": "Activation", "config": {"name": "activation_667", "trainable": false, "dtype": "float32", "activation": "relu"}, "name": "activation_667", "inbound_nodes": [[["batch_normalization_667", 0, 0, {}]]]}, {"class_name": "AveragePooling2D", "config": {"name": "average_pooling2d_63", "trainable": false, "dtype": "float32", "pool_size": [3, 3], "padding": "same", "strides": [1, 1], "data_format": "channels_last"}, "name": "average_pooling2d_63", "inbound_nodes": [[["max_pooling2d_29", 0, 0, {}]]]}, {"class_name": "Conv2D", "config": {"name": "conv2d_663", "trainable": false, "dtype": "float32", "filters": 64, "kernel_size": [1, 1], "strides": [1, 1], "padding": "same", "data_format": "channels_last", "dilation_rate": [1, 1], "groups": 1, "activation": "linear", "use_bias": false, "kernel_initializer": {"class_name": "GlorotUniform", "config": {"seed": null}}, "bias_initializer": {"class_name": "Zeros", "config": {}}, "kernel_regularizer": null, "bias_regularizer": null, "activity_regularizer": null, "kernel_constraint": null, "bias_constraint": null}, "name": "conv2d_663", "inbound_nodes": [[["max_pooling2d_29", 0, 0, {}]]]}, {"class_name": "Conv2D", "config": {"name": "conv2d_665", "trainable": false, "dtype": "float32", "filters": 64, "kernel_size": [5, 5], "strides": [1, 1], "padding": "same", "data_format": "channels_last", "dilation_rate": [1, 1], "groups": 1, "activation": "linear", "use_bias": false, "kernel_initializer": {"class_name": "GlorotUniform", "config": {"seed": null}}, "bias_initializer": {"class_name": "Zeros", "config": {}}, "kernel_regularizer": null, "bias_regularizer": null, "activity_regularizer": null, "kernel_constraint": null, "bias_constraint": null}, "name": "conv2d_665", "inbound_nodes": [[["activation_664", 0, 0, {}]]]}, {"class_name": "Conv2D", "config": {"name": "conv2d_668", "trainable": false, "dtype": "float32", "filters": 96, "kernel_size": [3, 3], "strides": [1, 1], "padding": "same", "data_format": "channels_last", "dilation_rate": [1, 1], "groups": 1, "activation": "linear", "use_bias": false, "kernel_initializer": {"class_name": "GlorotUniform", "config": {"seed": null}}, "bias_initializer": {"class_name": "Zeros", "config": {}}, "kernel_regularizer": null, "bias_regularizer": null, "activity_regularizer": null, "kernel_constraint": null, "bias_constraint": null}, "name": "conv2d_668", "inbound_nodes": [[["activation_667", 0, 0, {}]]]}, {"class_name": "Conv2D", "config": {"name": "conv2d_669", "trainable": false, "dtype": "float32", "filters": 32, "kernel_size": [1, 1], "strides": [1, 1], "padding": "same", "data_format": "channels_last", "dilation_rate": [1, 1], "groups": 1, "activation": "linear", "use_bias": false, "kernel_initializer": {"class_name": "GlorotUniform", "config": {"seed": null}}, "bias_initializer": {"class_name": "Zeros", "config": {}}, "kernel_regularizer": null, "bias_regularizer": null, "activity_regularizer": null, "kernel_constraint": null, "bias_constraint": null}, "name": "conv2d_669", "inbound_nodes": [[["average_pooling2d_63", 0, 0, {}]]]}, {"class_name": "BatchNormalization", "config": {"name": "batch_normalization_663", "trainable": false, "dtype": "float32", "axis": [3], "momentum": 0.99, "epsilon": 0.001, "center": true, "scale": false, "beta_initializer": {"class_name": "Zeros", "config": {}}, "gamma_initializer": {"class_name": "Ones", "config": {}}, "moving_mean_initializer": {"class_name": "Zeros", "config": {}}, "moving_variance_initializer": {"class_name": "Ones", "config": {}}, "beta_regularizer": null, "gamma_regularizer": null, "beta_constraint": null, "gamma_constraint": null}, "name": "batch_normalization_663", "inbound_nodes": [[["conv2d_663", 0, 0, {}]]]}, {"class_name": "BatchNormalization", "config": {"name": "batch_normalization_665", "trainable": false, "dtype": "float32", "axis": [3], "momentum": 0.99, "epsilon": 0.001, "center": true, "scale": false, "beta_initializer": {"class_name": "Zeros", "config": {}}, "gamma_initializer": {"class_name": "Ones", "config": {}}, "moving_mean_initializer": {"class_name": "Zeros", "config": {}}, "moving_variance_initializer": {"class_name": "Ones", "config": {}}, "beta_regularizer": null, "gamma_regularizer": null, "beta_constraint": null, "gamma_constraint": null}, "name": "batch_normalization_665", "inbound_nodes": [[["conv2d_665", 0, 0, {}]]]}, {"class_name": "BatchNormalization", "config": {"name": "batch_normalization_668", "trainable": false, "dtype": "float32", "axis": [3], "momentum": 0.99, "epsilon": 0.001, "center": true, "scale": false, "beta_initializer": {"class_name": "Zeros", "config": {}}, "gamma_initializer": {"class_name": "Ones", "config": {}}, "moving_mean_initializer": {"class_name": "Zeros", "config": {}}, "moving_variance_initializer": {"class_name": "Ones", "config": {}}, "beta_regularizer": null, "gamma_regularizer": null, "beta_constraint": null, "gamma_constraint": null}, "name": "batch_normalization_668", "inbound_nodes": [[["conv2d_668", 0, 0, {}]]]}, {"class_name": "BatchNormalization", "config": {"name": "batch_normalization_669", "trainable": false, "dtype": "float32", "axis": [3], "momentum": 0.99, "epsilon": 0.001, "center": true, "scale": false, "beta_initializer": {"class_name": "Zeros", "config": {}}, "gamma_initializer": {"class_name": "Ones", "config": {}}, "moving_mean_initializer": {"class_name": "Zeros", "config": {}}, "moving_variance_initializer": {"class_name": "Ones", "config": {}}, "beta_regularizer": null, "gamma_regularizer": null, "beta_constraint": null, "gamma_constraint": null}, "name": "batch_normalization_669", "inbound_nodes": [[["conv2d_669", 0, 0, {}]]]}, {"class_name": "Activation", "config": {"name": "activation_663", "trainable": false, "dtype": "float32", "activation": "relu"}, "name": "activation_663", "inbound_nodes": [[["batch_normalization_663", 0, 0, {}]]]}, {"class_name": "Activation", "config": {"name": "activation_665", "trainable": false, "dtype": "float32", "activation": "relu"}, "name": "activation_665", "inbound_nodes": [[["batch_normalization_665", 0, 0, {}]]]}, {"class_name": "Activation", "config": {"name": "activation_668", "trainable": false, "dtype": "float32", "activation": "relu"}, "name": "activation_668", "inbound_nodes": [[["batch_normalization_668", 0, 0, {}]]]}, {"class_name": "Activation", "config": {"name": "activation_669", "trainable": false, "dtype": "float32", "activation": "relu"}, "name": "activation_669", "inbound_nodes": [[["batch_normalization_669", 0, 0, {}]]]}, {"class_name": "Concatenate", "config": {"name": "mixed0", "trainable": false, "dtype": "float32", "axis": 3}, "name": "mixed0", "inbound_nodes": [[["activation_663", 0, 0, {}], ["activation_665", 0, 0, {}], ["activation_668", 0, 0, {}], ["activation_669", 0, 0, {}]]]}, {"class_name": "Conv2D", "config": {"name": "conv2d_673", "trainable": false, "dtype": "float32", "filters": 64, "kernel_size": [1, 1], "strides": [1, 1], "padding": "same", "data_format": "channels_last", "dilation_rate": [1, 1], "groups": 1, "activation": "linear", "use_bias": false, "kernel_initializer": {"class_name": "GlorotUniform", "config": {"seed": null}}, "bias_initializer": {"class_name": "Zeros", "config": {}}, "kernel_regularizer": null, "bias_regularizer": null, "activity_regularizer": null, "kernel_constraint": null, "bias_constraint": null}, "name": "conv2d_673", "inbound_nodes": [[["mixed0", 0, 0, {}]]]}, {"class_name": "BatchNormalization", "config": {"name": "batch_normalization_673", "trainable": false, "dtype": "float32", "axis": [3], "momentum": 0.99, "epsilon": 0.001, "center": true, "scale": false, "beta_initializer": {"class_name": "Zeros", "config": {}}, "gamma_initializer": {"class_name": "Ones", "config": {}}, "moving_mean_initializer": {"class_name": "Zeros", "config": {}}, "moving_variance_initializer": {"class_name": "Ones", "config": {}}, "beta_regularizer": null, "gamma_regularizer": null, "beta_constraint": null, "gamma_constraint": null}, "name": "batch_normalization_673", "inbound_nodes": [[["conv2d_673", 0, 0, {}]]]}, {"class_name": "Activation", "config": {"name": "activation_673", "trainable": false, "dtype": "float32", "activation": "relu"}, "name": "activation_673", "inbound_nodes": [[["batch_normalization_673", 0, 0, {}]]]}, {"class_name": "Conv2D", "config": {"name": "conv2d_671", "trainable": false, "dtype": "float32", "filters": 48, "kernel_size": [1, 1], "strides": [1, 1], "padding": "same", "data_format": "channels_last", "dilation_rate": [1, 1], "groups": 1, "activation": "linear", "use_bias": false, "kernel_initializer": {"class_name": "GlorotUniform", "config": {"seed": null}}, "bias_initializer": {"class_name": "Zeros", "config": {}}, "kernel_regularizer": null, "bias_regularizer": null, "activity_regularizer": null, "kernel_constraint": null, "bias_constraint": null}, "name": "conv2d_671", "inbound_nodes": [[["mixed0", 0, 0, {}]]]}, {"class_name": "Conv2D", "config": {"name": "conv2d_674", "trainable": false, "dtype": "float32", "filters": 96, "kernel_size": [3, 3], "strides": [1, 1], "padding": "same", "data_format": "channels_last", "dilation_rate": [1, 1], "groups": 1, "activation": "linear", "use_bias": false, "kernel_initializer": {"class_name": "GlorotUniform", "config": {"seed": null}}, "bias_initializer": {"class_name": "Zeros", "config": {}}, "kernel_regularizer": null, "bias_regularizer": null, "activity_regularizer": null, "kernel_constraint": null, "bias_constraint": null}, "name": "conv2d_674", "inbound_nodes": [[["activation_673", 0, 0, {}]]]}, {"class_name": "BatchNormalization", "config": {"name": "batch_normalization_671", "trainable": false, "dtype": "float32", "axis": [3], "momentum": 0.99, "epsilon": 0.001, "center": true, "scale": false, "beta_initializer": {"class_name": "Zeros", "config": {}}, "gamma_initializer": {"class_name": "Ones", "config": {}}, "moving_mean_initializer": {"class_name": "Zeros", "config": {}}, "moving_variance_initializer": {"class_name": "Ones", "config": {}}, "beta_regularizer": null, "gamma_regularizer": null, "beta_constraint": null, "gamma_constraint": null}, "name": "batch_normalization_671", "inbound_nodes": [[["conv2d_671", 0, 0, {}]]]}, {"class_name": "BatchNormalization", "config": {"name": "batch_normalization_674", "trainable": false, "dtype": "float32", "axis": [3], "momentum": 0.99, "epsilon": 0.001, "center": true, "scale": false, "beta_initializer": {"class_name": "Zeros", "config": {}}, "gamma_initializer": {"class_name": "Ones", "config": {}}, "moving_mean_initializer": {"class_name": "Zeros", "config": {}}, "moving_variance_initializer": {"class_name": "Ones", "config": {}}, "beta_regularizer": null, "gamma_regularizer": null, "beta_constraint": null, "gamma_constraint": null}, "name": "batch_normalization_674", "inbound_nodes": [[["conv2d_674", 0, 0, {}]]]}, {"class_name": "Activation", "config": {"name": "activation_671", "trainable": false, "dtype": "float32", "activation": "relu"}, "name": "activation_671", "inbound_nodes": [[["batch_normalization_671", 0, 0, {}]]]}, {"class_name": "Activation", "config": {"name": "activation_674", "trainable": false, "dtype": "float32", "activation": "relu"}, "name": "activation_674", "inbound_nodes": [[["batch_normalization_674", 0, 0, {}]]]}, {"class_name": "AveragePooling2D", "config": {"name": "average_pooling2d_64", "trainable": false, "dtype": "float32", "pool_size": [3, 3], "padding": "same", "strides": [1, 1], "data_format": "channels_last"}, "name": "average_pooling2d_64", "inbound_nodes": [[["mixed0", 0, 0, {}]]]}, {"class_name": "Conv2D", "config": {"name": "conv2d_670", "trainable": false, "dtype": "float32", "filters": 64, "kernel_size": [1, 1], "strides": [1, 1], "padding": "same", "data_format": "channels_last", "dilation_rate": [1, 1], "groups": 1, "activation": "linear", "use_bias": false, "kernel_initializer": {"class_name": "GlorotUniform", "config": {"seed": null}}, "bias_initializer": {"class_name": "Zeros", "config": {}}, "kernel_regularizer": null, "bias_regularizer": null, "activity_regularizer": null, "kernel_constraint": null, "bias_constraint": null}, "name": "conv2d_670", "inbound_nodes": [[["mixed0", 0, 0, {}]]]}, {"class_name": "Conv2D", "config": {"name": "conv2d_672", "trainable": false, "dtype": "float32", "filters": 64, "kernel_size": [5, 5], "strides": [1, 1], "padding": "same", "data_format": "channels_last", "dilation_rate": [1, 1], "groups": 1, "activation": "linear", "use_bias": false, "kernel_initializer": {"class_name": "GlorotUniform", "config": {"seed": null}}, "bias_initializer": {"class_name": "Zeros", "config": {}}, "kernel_regularizer": null, "bias_regularizer": null, "activity_regularizer": null, "kernel_constraint": null, "bias_constraint": null}, "name": "conv2d_672", "inbound_nodes": [[["activation_671", 0, 0, {}]]]}, {"class_name": "Conv2D", "config": {"name": "conv2d_675", "trainable": false, "dtype": "float32", "filters": 96, "kernel_size": [3, 3], "strides": [1, 1], "padding": "same", "data_format": "channels_last", "dilation_rate": [1, 1], "groups": 1, "activation": "linear", "use_bias": false, "kernel_initializer": {"class_name": "GlorotUniform", "config": {"seed": null}}, "bias_initializer": {"class_name": "Zeros", "config": {}}, "kernel_regularizer": null, "bias_regularizer": null, "activity_regularizer": null, "kernel_constraint": null, "bias_constraint": null}, "name": "conv2d_675", "inbound_nodes": [[["activation_674", 0, 0, {}]]]}, {"class_name": "Conv2D", "config": {"name": "conv2d_676", "trainable": false, "dtype": "float32", "filters": 64, "kernel_size": [1, 1], "strides": [1, 1], "padding": "same", "data_format": "channels_last", "dilation_rate": [1, 1], "groups": 1, "activation": "linear", "use_bias": false, "kernel_initializer": {"class_name": "GlorotUniform", "config": {"seed": null}}, "bias_initializer": {"class_name": "Zeros", "config": {}}, "kernel_regularizer": null, "bias_regularizer": null, "activity_regularizer": null, "kernel_constraint": null, "bias_constraint": null}, "name": "conv2d_676", "inbound_nodes": [[["average_pooling2d_64", 0, 0, {}]]]}, {"class_name": "BatchNormalization", "config": {"name": "batch_normalization_670", "trainable": false, "dtype": "float32", "axis": [3], "momentum": 0.99, "epsilon": 0.001, "center": true, "scale": false, "beta_initializer": {"class_name": "Zeros", "config": {}}, "gamma_initializer": {"class_name": "Ones", "config": {}}, "moving_mean_initializer": {"class_name": "Zeros", "config": {}}, "moving_variance_initializer": {"class_name": "Ones", "config": {}}, "beta_regularizer": null, "gamma_regularizer": null, "beta_constraint": null, "gamma_constraint": null}, "name": "batch_normalization_670", "inbound_nodes": [[["conv2d_670", 0, 0, {}]]]}, {"class_name": "BatchNormalization", "config": {"name": "batch_normalization_672", "trainable": false, "dtype": "float32", "axis": [3], "momentum": 0.99, "epsilon": 0.001, "center": true, "scale": false, "beta_initializer": {"class_name": "Zeros", "config": {}}, "gamma_initializer": {"class_name": "Ones", "config": {}}, "moving_mean_initializer": {"class_name": "Zeros", "config": {}}, "moving_variance_initializer": {"class_name": "Ones", "config": {}}, "beta_regularizer": null, "gamma_regularizer": null, "beta_constraint": null, "gamma_constraint": null}, "name": "batch_normalization_672", "inbound_nodes": [[["conv2d_672", 0, 0, {}]]]}, {"class_name": "BatchNormalization", "config": {"name": "batch_normalization_675", "trainable": false, "dtype": "float32", "axis": [3], "momentum": 0.99, "epsilon": 0.001, "center": true, "scale": false, "beta_initializer": {"class_name": "Zeros", "config": {}}, "gamma_initializer": {"class_name": "Ones", "config": {}}, "moving_mean_initializer": {"class_name": "Zeros", "config": {}}, "moving_variance_initializer": {"class_name": "Ones", "config": {}}, "beta_regularizer": null, "gamma_regularizer": null, "beta_constraint": null, "gamma_constraint": null}, "name": "batch_normalization_675", "inbound_nodes": [[["conv2d_675", 0, 0, {}]]]}, {"class_name": "BatchNormalization", "config": {"name": "batch_normalization_676", "trainable": false, "dtype": "float32", "axis": [3], "momentum": 0.99, "epsilon": 0.001, "center": true, "scale": false, "beta_initializer": {"class_name": "Zeros", "config": {}}, "gamma_initializer": {"class_name": "Ones", "config": {}}, "moving_mean_initializer": {"class_name": "Zeros", "config": {}}, "moving_variance_initializer": {"class_name": "Ones", "config": {}}, "beta_regularizer": null, "gamma_regularizer": null, "beta_constraint": null, "gamma_constraint": null}, "name": "batch_normalization_676", "inbound_nodes": [[["conv2d_676", 0, 0, {}]]]}, {"class_name": "Activation", "config": {"name": "activation_670", "trainable": false, "dtype": "float32", "activation": "relu"}, "name": "activation_670", "inbound_nodes": [[["batch_normalization_670", 0, 0, {}]]]}, {"class_name": "Activation", "config": {"name": "activation_672", "trainable": false, "dtype": "float32", "activation": "relu"}, "name": "activation_672", "inbound_nodes": [[["batch_normalization_672", 0, 0, {}]]]}, {"class_name": "Activation", "config": {"name": "activation_675", "trainable": false, "dtype": "float32", "activation": "relu"}, "name": "activation_675", "inbound_nodes": [[["batch_normalization_675", 0, 0, {}]]]}, {"class_name": "Activation", "config": {"name": "activation_676", "trainable": false, "dtype": "float32", "activation": "relu"}, "name": "activation_676", "inbound_nodes": [[["batch_normalization_676", 0, 0, {}]]]}, {"class_name": "Concatenate", "config": {"name": "mixed1", "trainable": false, "dtype": "float32", "axis": 3}, "name": "mixed1", "inbound_nodes": [[["activation_670", 0, 0, {}], ["activation_672", 0, 0, {}], ["activation_675", 0, 0, {}], ["activation_676", 0, 0, {}]]]}, {"class_name": "Conv2D", "config": {"name": "conv2d_680", "trainable": false, "dtype": "float32", "filters": 64, "kernel_size": [1, 1], "strides": [1, 1], "padding": "same", "data_format": "channels_last", "dilation_rate": [1, 1], "groups": 1, "activation": "linear", "use_bias": false, "kernel_initializer": {"class_name": "GlorotUniform", "config": {"seed": null}}, "bias_initializer": {"class_name": "Zeros", "config": {}}, "kernel_regularizer": null, "bias_regularizer": null, "activity_regularizer": null, "kernel_constraint": null, "bias_constraint": null}, "name": "conv2d_680", "inbound_nodes": [[["mixed1", 0, 0, {}]]]}, {"class_name": "BatchNormalization", "config": {"name": "batch_normalization_680", "trainable": false, "dtype": "float32", "axis": [3], "momentum": 0.99, "epsilon": 0.001, "center": true, "scale": false, "beta_initializer": {"class_name": "Zeros", "config": {}}, "gamma_initializer": {"class_name": "Ones", "config": {}}, "moving_mean_initializer": {"class_name": "Zeros", "config": {}}, "moving_variance_initializer": {"class_name": "Ones", "config": {}}, "beta_regularizer": null, "gamma_regularizer": null, "beta_constraint": null, "gamma_constraint": null}, "name": "batch_normalization_680", "inbound_nodes": [[["conv2d_680", 0, 0, {}]]]}, {"class_name": "Activation", "config": {"name": "activation_680", "trainable": false, "dtype": "float32", "activation": "relu"}, "name": "activation_680", "inbound_nodes": [[["batch_normalization_680", 0, 0, {}]]]}, {"class_name": "Conv2D", "config": {"name": "conv2d_678", "trainable": false, "dtype": "float32", "filters": 48, "kernel_size": [1, 1], "strides": [1, 1], "padding": "same", "data_format": "channels_last", "dilation_rate": [1, 1], "groups": 1, "activation": "linear", "use_bias": false, "kernel_initializer": {"class_name": "GlorotUniform", "config": {"seed": null}}, "bias_initializer": {"class_name": "Zeros", "config": {}}, "kernel_regularizer": null, "bias_regularizer": null, "activity_regularizer": null, "kernel_constraint": null, "bias_constraint": null}, "name": "conv2d_678", "inbound_nodes": [[["mixed1", 0, 0, {}]]]}, {"class_name": "Conv2D", "config": {"name": "conv2d_681", "trainable": false, "dtype": "float32", "filters": 96, "kernel_size": [3, 3], "strides": [1, 1], "padding": "same", "data_format": "channels_last", "dilation_rate": [1, 1], "groups": 1, "activation": "linear", "use_bias": false, "kernel_initializer": {"class_name": "GlorotUniform", "config": {"seed": null}}, "bias_initializer": {"class_name": "Zeros", "config": {}}, "kernel_regularizer": null, "bias_regularizer": null, "activity_regularizer": null, "kernel_constraint": null, "bias_constraint": null}, "name": "conv2d_681", "inbound_nodes": [[["activation_680", 0, 0, {}]]]}, {"class_name": "BatchNormalization", "config": {"name": "batch_normalization_678", "trainable": false, "dtype": "float32", "axis": [3], "momentum": 0.99, "epsilon": 0.001, "center": true, "scale": false, "beta_initializer": {"class_name": "Zeros", "config": {}}, "gamma_initializer": {"class_name": "Ones", "config": {}}, "moving_mean_initializer": {"class_name": "Zeros", "config": {}}, "moving_variance_initializer": {"class_name": "Ones", "config": {}}, "beta_regularizer": null, "gamma_regularizer": null, "beta_constraint": null, "gamma_constraint": null}, "name": "batch_normalization_678", "inbound_nodes": [[["conv2d_678", 0, 0, {}]]]}, {"class_name": "BatchNormalization", "config": {"name": "batch_normalization_681", "trainable": false, "dtype": "float32", "axis": [3], "momentum": 0.99, "epsilon": 0.001, "center": true, "scale": false, "beta_initializer": {"class_name": "Zeros", "config": {}}, "gamma_initializer": {"class_name": "Ones", "config": {}}, "moving_mean_initializer": {"class_name": "Zeros", "config": {}}, "moving_variance_initializer": {"class_name": "Ones", "config": {}}, "beta_regularizer": null, "gamma_regularizer": null, "beta_constraint": null, "gamma_constraint": null}, "name": "batch_normalization_681", "inbound_nodes": [[["conv2d_681", 0, 0, {}]]]}, {"class_name": "Activation", "config": {"name": "activation_678", "trainable": false, "dtype": "float32", "activation": "relu"}, "name": "activation_678", "inbound_nodes": [[["batch_normalization_678", 0, 0, {}]]]}, {"class_name": "Activation", "config": {"name": "activation_681", "trainable": false, "dtype": "float32", "activation": "relu"}, "name": "activation_681", "inbound_nodes": [[["batch_normalization_681", 0, 0, {}]]]}, {"class_name": "AveragePooling2D", "config": {"name": "average_pooling2d_65", "trainable": false, "dtype": "float32", "pool_size": [3, 3], "padding": "same", "strides": [1, 1], "data_format": "channels_last"}, "name": "average_pooling2d_65", "inbound_nodes": [[["mixed1", 0, 0, {}]]]}, {"class_name": "Conv2D", "config": {"name": "conv2d_677", "trainable": false, "dtype": "float32", "filters": 64, "kernel_size": [1, 1], "strides": [1, 1], "padding": "same", "data_format": "channels_last", "dilation_rate": [1, 1], "groups": 1, "activation": "linear", "use_bias": false, "kernel_initializer": {"class_name": "GlorotUniform", "config": {"seed": null}}, "bias_initializer": {"class_name": "Zeros", "config": {}}, "kernel_regularizer": null, "bias_regularizer": null, "activity_regularizer": null, "kernel_constraint": null, "bias_constraint": null}, "name": "conv2d_677", "inbound_nodes": [[["mixed1", 0, 0, {}]]]}, {"class_name": "Conv2D", "config": {"name": "conv2d_679", "trainable": false, "dtype": "float32", "filters": 64, "kernel_size": [5, 5], "strides": [1, 1], "padding": "same", "data_format": "channels_last", "dilation_rate": [1, 1], "groups": 1, "activation": "linear", "use_bias": false, "kernel_initializer": {"class_name": "GlorotUniform", "config": {"seed": null}}, "bias_initializer": {"class_name": "Zeros", "config": {}}, "kernel_regularizer": null, "bias_regularizer": null, "activity_regularizer": null, "kernel_constraint": null, "bias_constraint": null}, "name": "conv2d_679", "inbound_nodes": [[["activation_678", 0, 0, {}]]]}, {"class_name": "Conv2D", "config": {"name": "conv2d_682", "trainable": false, "dtype": "float32", "filters": 96, "kernel_size": [3, 3], "strides": [1, 1], "padding": "same", "data_format": "channels_last", "dilation_rate": [1, 1], "groups": 1, "activation": "linear", "use_bias": false, "kernel_initializer": {"class_name": "GlorotUniform", "config": {"seed": null}}, "bias_initializer": {"class_name": "Zeros", "config": {}}, "kernel_regularizer": null, "bias_regularizer": null, "activity_regularizer": null, "kernel_constraint": null, "bias_constraint": null}, "name": "conv2d_682", "inbound_nodes": [[["activation_681", 0, 0, {}]]]}, {"class_name": "Conv2D", "config": {"name": "conv2d_683", "trainable": false, "dtype": "float32", "filters": 64, "kernel_size": [1, 1], "strides": [1, 1], "padding": "same", "data_format": "channels_last", "dilation_rate": [1, 1], "groups": 1, "activation": "linear", "use_bias": false, "kernel_initializer": {"class_name": "GlorotUniform", "config": {"seed": null}}, "bias_initializer": {"class_name": "Zeros", "config": {}}, "kernel_regularizer": null, "bias_regularizer": null, "activity_regularizer": null, "kernel_constraint": null, "bias_constraint": null}, "name": "conv2d_683", "inbound_nodes": [[["average_pooling2d_65", 0, 0, {}]]]}, {"class_name": "BatchNormalization", "config": {"name": "batch_normalization_677", "trainable": false, "dtype": "float32", "axis": [3], "momentum": 0.99, "epsilon": 0.001, "center": true, "scale": false, "beta_initializer": {"class_name": "Zeros", "config": {}}, "gamma_initializer": {"class_name": "Ones", "config": {}}, "moving_mean_initializer": {"class_name": "Zeros", "config": {}}, "moving_variance_initializer": {"class_name": "Ones", "config": {}}, "beta_regularizer": null, "gamma_regularizer": null, "beta_constraint": null, "gamma_constraint": null}, "name": "batch_normalization_677", "inbound_nodes": [[["conv2d_677", 0, 0, {}]]]}, {"class_name": "BatchNormalization", "config": {"name": "batch_normalization_679", "trainable": false, "dtype": "float32", "axis": [3], "momentum": 0.99, "epsilon": 0.001, "center": true, "scale": false, "beta_initializer": {"class_name": "Zeros", "config": {}}, "gamma_initializer": {"class_name": "Ones", "config": {}}, "moving_mean_initializer": {"class_name": "Zeros", "config": {}}, "moving_variance_initializer": {"class_name": "Ones", "config": {}}, "beta_regularizer": null, "gamma_regularizer": null, "beta_constraint": null, "gamma_constraint": null}, "name": "batch_normalization_679", "inbound_nodes": [[["conv2d_679", 0, 0, {}]]]}, {"class_name": "BatchNormalization", "config": {"name": "batch_normalization_682", "trainable": false, "dtype": "float32", "axis": [3], "momentum": 0.99, "epsilon": 0.001, "center": true, "scale": false, "beta_initializer": {"class_name": "Zeros", "config": {}}, "gamma_initializer": {"class_name": "Ones", "config": {}}, "moving_mean_initializer": {"class_name": "Zeros", "config": {}}, "moving_variance_initializer": {"class_name": "Ones", "config": {}}, "beta_regularizer": null, "gamma_regularizer": null, "beta_constraint": null, "gamma_constraint": null}, "name": "batch_normalization_682", "inbound_nodes": [[["conv2d_682", 0, 0, {}]]]}, {"class_name": "BatchNormalization", "config": {"name": "batch_normalization_683", "trainable": false, "dtype": "float32", "axis": [3], "momentum": 0.99, "epsilon": 0.001, "center": true, "scale": false, "beta_initializer": {"class_name": "Zeros", "config": {}}, "gamma_initializer": {"class_name": "Ones", "config": {}}, "moving_mean_initializer": {"class_name": "Zeros", "config": {}}, "moving_variance_initializer": {"class_name": "Ones", "config": {}}, "beta_regularizer": null, "gamma_regularizer": null, "beta_constraint": null, "gamma_constraint": null}, "name": "batch_normalization_683", "inbound_nodes": [[["conv2d_683", 0, 0, {}]]]}, {"class_name": "Activation", "config": {"name": "activation_677", "trainable": false, "dtype": "float32", "activation": "relu"}, "name": "activation_677", "inbound_nodes": [[["batch_normalization_677", 0, 0, {}]]]}, {"class_name": "Activation", "config": {"name": "activation_679", "trainable": false, "dtype": "float32", "activation": "relu"}, "name": "activation_679", "inbound_nodes": [[["batch_normalization_679", 0, 0, {}]]]}, {"class_name": "Activation", "config": {"name": "activation_682", "trainable": false, "dtype": "float32", "activation": "relu"}, "name": "activation_682", "inbound_nodes": [[["batch_normalization_682", 0, 0, {}]]]}, {"class_name": "Activation", "config": {"name": "activation_683", "trainable": false, "dtype": "float32", "activation": "relu"}, "name": "activation_683", "inbound_nodes": [[["batch_normalization_683", 0, 0, {}]]]}, {"class_name": "Concatenate", "config": {"name": "mixed2", "trainable": false, "dtype": "float32", "axis": 3}, "name": "mixed2", "inbound_nodes": [[["activation_677", 0, 0, {}], ["activation_679", 0, 0, {}], ["activation_682", 0, 0, {}], ["activation_683", 0, 0, {}]]]}, {"class_name": "Conv2D", "config": {"name": "conv2d_685", "trainable": false, "dtype": "float32", "filters": 64, "kernel_size": [1, 1], "strides": [1, 1], "padding": "same", "data_format": "channels_last", "dilation_rate": [1, 1], "groups": 1, "activation": "linear", "use_bias": false, "kernel_initializer": {"class_name": "GlorotUniform", "config": {"seed": null}}, "bias_initializer": {"class_name": "Zeros", "config": {}}, "kernel_regularizer": null, "bias_regularizer": null, "activity_regularizer": null, "kernel_constraint": null, "bias_constraint": null}, "name": "conv2d_685", "inbound_nodes": [[["mixed2", 0, 0, {}]]]}, {"class_name": "BatchNormalization", "config": {"name": "batch_normalization_685", "trainable": false, "dtype": "float32", "axis": [3], "momentum": 0.99, "epsilon": 0.001, "center": true, "scale": false, "beta_initializer": {"class_name": "Zeros", "config": {}}, "gamma_initializer": {"class_name": "Ones", "config": {}}, "moving_mean_initializer": {"class_name": "Zeros", "config": {}}, "moving_variance_initializer": {"class_name": "Ones", "config": {}}, "beta_regularizer": null, "gamma_regularizer": null, "beta_constraint": null, "gamma_constraint": null}, "name": "batch_normalization_685", "inbound_nodes": [[["conv2d_685", 0, 0, {}]]]}, {"class_name": "Activation", "config": {"name": "activation_685", "trainable": false, "dtype": "float32", "activation": "relu"}, "name": "activation_685", "inbound_nodes": [[["batch_normalization_685", 0, 0, {}]]]}, {"class_name": "Conv2D", "config": {"name": "conv2d_686", "trainable": false, "dtype": "float32", "filters": 96, "kernel_size": [3, 3], "strides": [1, 1], "padding": "same", "data_format": "channels_last", "dilation_rate": [1, 1], "groups": 1, "activation": "linear", "use_bias": false, "kernel_initializer": {"class_name": "GlorotUniform", "config": {"seed": null}}, "bias_initializer": {"class_name": "Zeros", "config": {}}, "kernel_regularizer": null, "bias_regularizer": null, "activity_regularizer": null, "kernel_constraint": null, "bias_constraint": null}, "name": "conv2d_686", "inbound_nodes": [[["activation_685", 0, 0, {}]]]}, {"class_name": "BatchNormalization", "config": {"name": "batch_normalization_686", "trainable": false, "dtype": "float32", "axis": [3], "momentum": 0.99, "epsilon": 0.001, "center": true, "scale": false, "beta_initializer": {"class_name": "Zeros", "config": {}}, "gamma_initializer": {"class_name": "Ones", "config": {}}, "moving_mean_initializer": {"class_name": "Zeros", "config": {}}, "moving_variance_initializer": {"class_name": "Ones", "config": {}}, "beta_regularizer": null, "gamma_regularizer": null, "beta_constraint": null, "gamma_constraint": null}, "name": "batch_normalization_686", "inbound_nodes": [[["conv2d_686", 0, 0, {}]]]}, {"class_name": "Activation", "config": {"name": "activation_686", "trainable": false, "dtype": "float32", "activation": "relu"}, "name": "activation_686", "inbound_nodes": [[["batch_normalization_686", 0, 0, {}]]]}, {"class_name": "Conv2D", "config": {"name": "conv2d_684", "trainable": false, "dtype": "float32", "filters": 384, "kernel_size": [3, 3], "strides": [2, 2], "padding": "valid", "data_format": "channels_last", "dilation_rate": [1, 1], "groups": 1, "activation": "linear", "use_bias": false, "kernel_initializer": {"class_name": "GlorotUniform", "config": {"seed": null}}, "bias_initializer": {"class_name": "Zeros", "config": {}}, "kernel_regularizer": null, "bias_regularizer": null, "activity_regularizer": null, "kernel_constraint": null, "bias_constraint": null}, "name": "conv2d_684", "inbound_nodes": [[["mixed2", 0, 0, {}]]]}, {"class_name": "Conv2D", "config": {"name": "conv2d_687", "trainable": false, "dtype": "float32", "filters": 96, "kernel_size": [3, 3], "strides": [2, 2], "padding": "valid", "data_format": "channels_last", "dilation_rate": [1, 1], "groups": 1, "activation": "linear", "use_bias": false, "kernel_initializer": {"class_name": "GlorotUniform", "config": {"seed": null}}, "bias_initializer": {"class_name": "Zeros", "config": {}}, "kernel_regularizer": null, "bias_regularizer": null, "activity_regularizer": null, "kernel_constraint": null, "bias_constraint": null}, "name": "conv2d_687", "inbound_nodes": [[["activation_686", 0, 0, {}]]]}, {"class_name": "BatchNormalization", "config": {"name": "batch_normalization_684", "trainable": false, "dtype": "float32", "axis": [3], "momentum": 0.99, "epsilon": 0.001, "center": true, "scale": false, "beta_initializer": {"class_name": "Zeros", "config": {}}, "gamma_initializer": {"class_name": "Ones", "config": {}}, "moving_mean_initializer": {"class_name": "Zeros", "config": {}}, "moving_variance_initializer": {"class_name": "Ones", "config": {}}, "beta_regularizer": null, "gamma_regularizer": null, "beta_constraint": null, "gamma_constraint": null}, "name": "batch_normalization_684", "inbound_nodes": [[["conv2d_684", 0, 0, {}]]]}, {"class_name": "BatchNormalization", "config": {"name": "batch_normalization_687", "trainable": false, "dtype": "float32", "axis": [3], "momentum": 0.99, "epsilon": 0.001, "center": true, "scale": false, "beta_initializer": {"class_name": "Zeros", "config": {}}, "gamma_initializer": {"class_name": "Ones", "config": {}}, "moving_mean_initializer": {"class_name": "Zeros", "config": {}}, "moving_variance_initializer": {"class_name": "Ones", "config": {}}, "beta_regularizer": null, "gamma_regularizer": null, "beta_constraint": null, "gamma_constraint": null}, "name": "batch_normalization_687", "inbound_nodes": [[["conv2d_687", 0, 0, {}]]]}, {"class_name": "Activation", "config": {"name": "activation_684", "trainable": false, "dtype": "float32", "activation": "relu"}, "name": "activation_684", "inbound_nodes": [[["batch_normalization_684", 0, 0, {}]]]}, {"class_name": "Activation", "config": {"name": "activation_687", "trainable": false, "dtype": "float32", "activation": "relu"}, "name": "activation_687", "inbound_nodes": [[["batch_normalization_687", 0, 0, {}]]]}, {"class_name": "MaxPooling2D", "config": {"name": "max_pooling2d_30", "trainable": false, "dtype": "float32", "pool_size": [3, 3], "padding": "valid", "strides": [2, 2], "data_format": "channels_last"}, "name": "max_pooling2d_30", "inbound_nodes": [[["mixed2", 0, 0, {}]]]}, {"class_name": "Concatenate", "config": {"name": "mixed3", "trainable": false, "dtype": "float32", "axis": 3}, "name": "mixed3", "inbound_nodes": [[["activation_684", 0, 0, {}], ["activation_687", 0, 0, {}], ["max_pooling2d_30", 0, 0, {}]]]}, {"class_name": "Conv2D", "config": {"name": "conv2d_692", "trainable": false, "dtype": "float32", "filters": 128, "kernel_size": [1, 1], "strides": [1, 1], "padding": "same", "data_format": "channels_last", "dilation_rate": [1, 1], "groups": 1, "activation": "linear", "use_bias": false, "kernel_initializer": {"class_name": "GlorotUniform", "config": {"seed": null}}, "bias_initializer": {"class_name": "Zeros", "config": {}}, "kernel_regularizer": null, "bias_regularizer": null, "activity_regularizer": null, "kernel_constraint": null, "bias_constraint": null}, "name": "conv2d_692", "inbound_nodes": [[["mixed3", 0, 0, {}]]]}, {"class_name": "BatchNormalization", "config": {"name": "batch_normalization_692", "trainable": false, "dtype": "float32", "axis": [3], "momentum": 0.99, "epsilon": 0.001, "center": true, "scale": false, "beta_initializer": {"class_name": "Zeros", "config": {}}, "gamma_initializer": {"class_name": "Ones", "config": {}}, "moving_mean_initializer": {"class_name": "Zeros", "config": {}}, "moving_variance_initializer": {"class_name": "Ones", "config": {}}, "beta_regularizer": null, "gamma_regularizer": null, "beta_constraint": null, "gamma_constraint": null}, "name": "batch_normalization_692", "inbound_nodes": [[["conv2d_692", 0, 0, {}]]]}, {"class_name": "Activation", "config": {"name": "activation_692", "trainable": false, "dtype": "float32", "activation": "relu"}, "name": "activation_692", "inbound_nodes": [[["batch_normalization_692", 0, 0, {}]]]}, {"class_name": "Conv2D", "config": {"name": "conv2d_693", "trainable": false, "dtype": "float32", "filters": 128, "kernel_size": [7, 1], "strides": [1, 1], "padding": "same", "data_format": "channels_last", "dilation_rate": [1, 1], "groups": 1, "activation": "linear", "use_bias": false, "kernel_initializer": {"class_name": "GlorotUniform", "config": {"seed": null}}, "bias_initializer": {"class_name": "Zeros", "config": {}}, "kernel_regularizer": null, "bias_regularizer": null, "activity_regularizer": null, "kernel_constraint": null, "bias_constraint": null}, "name": "conv2d_693", "inbound_nodes": [[["activation_692", 0, 0, {}]]]}, {"class_name": "BatchNormalization", "config": {"name": "batch_normalization_693", "trainable": false, "dtype": "float32", "axis": [3], "momentum": 0.99, "epsilon": 0.001, "center": true, "scale": false, "beta_initializer": {"class_name": "Zeros", "config": {}}, "gamma_initializer": {"class_name": "Ones", "config": {}}, "moving_mean_initializer": {"class_name": "Zeros", "config": {}}, "moving_variance_initializer": {"class_name": "Ones", "config": {}}, "beta_regularizer": null, "gamma_regularizer": null, "beta_constraint": null, "gamma_constraint": null}, "name": "batch_normalization_693", "inbound_nodes": [[["conv2d_693", 0, 0, {}]]]}, {"class_name": "Activation", "config": {"name": "activation_693", "trainable": false, "dtype": "float32", "activation": "relu"}, "name": "activation_693", "inbound_nodes": [[["batch_normalization_693", 0, 0, {}]]]}, {"class_name": "Conv2D", "config": {"name": "conv2d_689", "trainable": false, "dtype": "float32", "filters": 128, "kernel_size": [1, 1], "strides": [1, 1], "padding": "same", "data_format": "channels_last", "dilation_rate": [1, 1], "groups": 1, "activation": "linear", "use_bias": false, "kernel_initializer": {"class_name": "GlorotUniform", "config": {"seed": null}}, "bias_initializer": {"class_name": "Zeros", "config": {}}, "kernel_regularizer": null, "bias_regularizer": null, "activity_regularizer": null, "kernel_constraint": null, "bias_constraint": null}, "name": "conv2d_689", "inbound_nodes": [[["mixed3", 0, 0, {}]]]}, {"class_name": "Conv2D", "config": {"name": "conv2d_694", "trainable": false, "dtype": "float32", "filters": 128, "kernel_size": [1, 7], "strides": [1, 1], "padding": "same", "data_format": "channels_last", "dilation_rate": [1, 1], "groups": 1, "activation": "linear", "use_bias": false, "kernel_initializer": {"class_name": "GlorotUniform", "config": {"seed": null}}, "bias_initializer": {"class_name": "Zeros", "config": {}}, "kernel_regularizer": null, "bias_regularizer": null, "activity_regularizer": null, "kernel_constraint": null, "bias_constraint": null}, "name": "conv2d_694", "inbound_nodes": [[["activation_693", 0, 0, {}]]]}, {"class_name": "BatchNormalization", "config": {"name": "batch_normalization_689", "trainable": false, "dtype": "float32", "axis": [3], "momentum": 0.99, "epsilon": 0.001, "center": true, "scale": false, "beta_initializer": {"class_name": "Zeros", "config": {}}, "gamma_initializer": {"class_name": "Ones", "config": {}}, "moving_mean_initializer": {"class_name": "Zeros", "config": {}}, "moving_variance_initializer": {"class_name": "Ones", "config": {}}, "beta_regularizer": null, "gamma_regularizer": null, "beta_constraint": null, "gamma_constraint": null}, "name": "batch_normalization_689", "inbound_nodes": [[["conv2d_689", 0, 0, {}]]]}, {"class_name": "BatchNormalization", "config": {"name": "batch_normalization_694", "trainable": false, "dtype": "float32", "axis": [3], "momentum": 0.99, "epsilon": 0.001, "center": true, "scale": false, "beta_initializer": {"class_name": "Zeros", "config": {}}, "gamma_initializer": {"class_name": "Ones", "config": {}}, "moving_mean_initializer": {"class_name": "Zeros", "config": {}}, "moving_variance_initializer": {"class_name": "Ones", "config": {}}, "beta_regularizer": null, "gamma_regularizer": null, "beta_constraint": null, "gamma_constraint": null}, "name": "batch_normalization_694", "inbound_nodes": [[["conv2d_694", 0, 0, {}]]]}, {"class_name": "Activation", "config": {"name": "activation_689", "trainable": false, "dtype": "float32", "activation": "relu"}, "name": "activation_689", "inbound_nodes": [[["batch_normalization_689", 0, 0, {}]]]}, {"class_name": "Activation", "config": {"name": "activation_694", "trainable": false, "dtype": "float32", "activation": "relu"}, "name": "activation_694", "inbound_nodes": [[["batch_normalization_694", 0, 0, {}]]]}, {"class_name": "Conv2D", "config": {"name": "conv2d_690", "trainable": false, "dtype": "float32", "filters": 128, "kernel_size": [1, 7], "strides": [1, 1], "padding": "same", "data_format": "channels_last", "dilation_rate": [1, 1], "groups": 1, "activation": "linear", "use_bias": false, "kernel_initializer": {"class_name": "GlorotUniform", "config": {"seed": null}}, "bias_initializer": {"class_name": "Zeros", "config": {}}, "kernel_regularizer": null, "bias_regularizer": null, "activity_regularizer": null, "kernel_constraint": null, "bias_constraint": null}, "name": "conv2d_690", "inbound_nodes": [[["activation_689", 0, 0, {}]]]}, {"class_name": "Conv2D", "config": {"name": "conv2d_695", "trainable": false, "dtype": "float32", "filters": 128, "kernel_size": [7, 1], "strides": [1, 1], "padding": "same", "data_format": "channels_last", "dilation_rate": [1, 1], "groups": 1, "activation": "linear", "use_bias": false, "kernel_initializer": {"class_name": "GlorotUniform", "config": {"seed": null}}, "bias_initializer": {"class_name": "Zeros", "config": {}}, "kernel_regularizer": null, "bias_regularizer": null, "activity_regularizer": null, "kernel_constraint": null, "bias_constraint": null}, "name": "conv2d_695", "inbound_nodes": [[["activation_694", 0, 0, {}]]]}, {"class_name": "BatchNormalization", "config": {"name": "batch_normalization_690", "trainable": false, "dtype": "float32", "axis": [3], "momentum": 0.99, "epsilon": 0.001, "center": true, "scale": false, "beta_initializer": {"class_name": "Zeros", "config": {}}, "gamma_initializer": {"class_name": "Ones", "config": {}}, "moving_mean_initializer": {"class_name": "Zeros", "config": {}}, "moving_variance_initializer": {"class_name": "Ones", "config": {}}, "beta_regularizer": null, "gamma_regularizer": null, "beta_constraint": null, "gamma_constraint": null}, "name": "batch_normalization_690", "inbound_nodes": [[["conv2d_690", 0, 0, {}]]]}, {"class_name": "BatchNormalization", "config": {"name": "batch_normalization_695", "trainable": false, "dtype": "float32", "axis": [3], "momentum": 0.99, "epsilon": 0.001, "center": true, "scale": false, "beta_initializer": {"class_name": "Zeros", "config": {}}, "gamma_initializer": {"class_name": "Ones", "config": {}}, "moving_mean_initializer": {"class_name": "Zeros", "config": {}}, "moving_variance_initializer": {"class_name": "Ones", "config": {}}, "beta_regularizer": null, "gamma_regularizer": null, "beta_constraint": null, "gamma_constraint": null}, "name": "batch_normalization_695", "inbound_nodes": [[["conv2d_695", 0, 0, {}]]]}, {"class_name": "Activation", "config": {"name": "activation_690", "trainable": false, "dtype": "float32", "activation": "relu"}, "name": "activation_690", "inbound_nodes": [[["batch_normalization_690", 0, 0, {}]]]}, {"class_name": "Activation", "config": {"name": "activation_695", "trainable": false, "dtype": "float32", "activation": "relu"}, "name": "activation_695", "inbound_nodes": [[["batch_normalization_695", 0, 0, {}]]]}, {"class_name": "AveragePooling2D", "config": {"name": "average_pooling2d_66", "trainable": false, "dtype": "float32", "pool_size": [3, 3], "padding": "same", "strides": [1, 1], "data_format": "channels_last"}, "name": "average_pooling2d_66", "inbound_nodes": [[["mixed3", 0, 0, {}]]]}, {"class_name": "Conv2D", "config": {"name": "conv2d_688", "trainable": false, "dtype": "float32", "filters": 192, "kernel_size": [1, 1], "strides": [1, 1], "padding": "same", "data_format": "channels_last", "dilation_rate": [1, 1], "groups": 1, "activation": "linear", "use_bias": false, "kernel_initializer": {"class_name": "GlorotUniform", "config": {"seed": null}}, "bias_initializer": {"class_name": "Zeros", "config": {}}, "kernel_regularizer": null, "bias_regularizer": null, "activity_regularizer": null, "kernel_constraint": null, "bias_constraint": null}, "name": "conv2d_688", "inbound_nodes": [[["mixed3", 0, 0, {}]]]}, {"class_name": "Conv2D", "config": {"name": "conv2d_691", "trainable": false, "dtype": "float32", "filters": 192, "kernel_size": [7, 1], "strides": [1, 1], "padding": "same", "data_format": "channels_last", "dilation_rate": [1, 1], "groups": 1, "activation": "linear", "use_bias": false, "kernel_initializer": {"class_name": "GlorotUniform", "config": {"seed": null}}, "bias_initializer": {"class_name": "Zeros", "config": {}}, "kernel_regularizer": null, "bias_regularizer": null, "activity_regularizer": null, "kernel_constraint": null, "bias_constraint": null}, "name": "conv2d_691", "inbound_nodes": [[["activation_690", 0, 0, {}]]]}, {"class_name": "Conv2D", "config": {"name": "conv2d_696", "trainable": false, "dtype": "float32", "filters": 192, "kernel_size": [1, 7], "strides": [1, 1], "padding": "same", "data_format": "channels_last", "dilation_rate": [1, 1], "groups": 1, "activation": "linear", "use_bias": false, "kernel_initializer": {"class_name": "GlorotUniform", "config": {"seed": null}}, "bias_initializer": {"class_name": "Zeros", "config": {}}, "kernel_regularizer": null, "bias_regularizer": null, "activity_regularizer": null, "kernel_constraint": null, "bias_constraint": null}, "name": "conv2d_696", "inbound_nodes": [[["activation_695", 0, 0, {}]]]}, {"class_name": "Conv2D", "config": {"name": "conv2d_697", "trainable": false, "dtype": "float32", "filters": 192, "kernel_size": [1, 1], "strides": [1, 1], "padding": "same", "data_format": "channels_last", "dilation_rate": [1, 1], "groups": 1, "activation": "linear", "use_bias": false, "kernel_initializer": {"class_name": "GlorotUniform", "config": {"seed": null}}, "bias_initializer": {"class_name": "Zeros", "config": {}}, "kernel_regularizer": null, "bias_regularizer": null, "activity_regularizer": null, "kernel_constraint": null, "bias_constraint": null}, "name": "conv2d_697", "inbound_nodes": [[["average_pooling2d_66", 0, 0, {}]]]}, {"class_name": "BatchNormalization", "config": {"name": "batch_normalization_688", "trainable": false, "dtype": "float32", "axis": [3], "momentum": 0.99, "epsilon": 0.001, "center": true, "scale": false, "beta_initializer": {"class_name": "Zeros", "config": {}}, "gamma_initializer": {"class_name": "Ones", "config": {}}, "moving_mean_initializer": {"class_name": "Zeros", "config": {}}, "moving_variance_initializer": {"class_name": "Ones", "config": {}}, "beta_regularizer": null, "gamma_regularizer": null, "beta_constraint": null, "gamma_constraint": null}, "name": "batch_normalization_688", "inbound_nodes": [[["conv2d_688", 0, 0, {}]]]}, {"class_name": "BatchNormalization", "config": {"name": "batch_normalization_691", "trainable": false, "dtype": "float32", "axis": [3], "momentum": 0.99, "epsilon": 0.001, "center": true, "scale": false, "beta_initializer": {"class_name": "Zeros", "config": {}}, "gamma_initializer": {"class_name": "Ones", "config": {}}, "moving_mean_initializer": {"class_name": "Zeros", "config": {}}, "moving_variance_initializer": {"class_name": "Ones", "config": {}}, "beta_regularizer": null, "gamma_regularizer": null, "beta_constraint": null, "gamma_constraint": null}, "name": "batch_normalization_691", "inbound_nodes": [[["conv2d_691", 0, 0, {}]]]}, {"class_name": "BatchNormalization", "config": {"name": "batch_normalization_696", "trainable": false, "dtype": "float32", "axis": [3], "momentum": 0.99, "epsilon": 0.001, "center": true, "scale": false, "beta_initializer": {"class_name": "Zeros", "config": {}}, "gamma_initializer": {"class_name": "Ones", "config": {}}, "moving_mean_initializer": {"class_name": "Zeros", "config": {}}, "moving_variance_initializer": {"class_name": "Ones", "config": {}}, "beta_regularizer": null, "gamma_regularizer": null, "beta_constraint": null, "gamma_constraint": null}, "name": "batch_normalization_696", "inbound_nodes": [[["conv2d_696", 0, 0, {}]]]}, {"class_name": "BatchNormalization", "config": {"name": "batch_normalization_697", "trainable": false, "dtype": "float32", "axis": [3], "momentum": 0.99, "epsilon": 0.001, "center": true, "scale": false, "beta_initializer": {"class_name": "Zeros", "config": {}}, "gamma_initializer": {"class_name": "Ones", "config": {}}, "moving_mean_initializer": {"class_name": "Zeros", "config": {}}, "moving_variance_initializer": {"class_name": "Ones", "config": {}}, "beta_regularizer": null, "gamma_regularizer": null, "beta_constraint": null, "gamma_constraint": null}, "name": "batch_normalization_697", "inbound_nodes": [[["conv2d_697", 0, 0, {}]]]}, {"class_name": "Activation", "config": {"name": "activation_688", "trainable": false, "dtype": "float32", "activation": "relu"}, "name": "activation_688", "inbound_nodes": [[["batch_normalization_688", 0, 0, {}]]]}, {"class_name": "Activation", "config": {"name": "activation_691", "trainable": false, "dtype": "float32", "activation": "relu"}, "name": "activation_691", "inbound_nodes": [[["batch_normalization_691", 0, 0, {}]]]}, {"class_name": "Activation", "config": {"name": "activation_696", "trainable": false, "dtype": "float32", "activation": "relu"}, "name": "activation_696", "inbound_nodes": [[["batch_normalization_696", 0, 0, {}]]]}, {"class_name": "Activation", "config": {"name": "activation_697", "trainable": false, "dtype": "float32", "activation": "relu"}, "name": "activation_697", "inbound_nodes": [[["batch_normalization_697", 0, 0, {}]]]}, {"class_name": "Concatenate", "config": {"name": "mixed4", "trainable": false, "dtype": "float32", "axis": 3}, "name": "mixed4", "inbound_nodes": [[["activation_688", 0, 0, {}], ["activation_691", 0, 0, {}], ["activation_696", 0, 0, {}], ["activation_697", 0, 0, {}]]]}, {"class_name": "Conv2D", "config": {"name": "conv2d_702", "trainable": false, "dtype": "float32", "filters": 160, "kernel_size": [1, 1], "strides": [1, 1], "padding": "same", "data_format": "channels_last", "dilation_rate": [1, 1], "groups": 1, "activation": "linear", "use_bias": false, "kernel_initializer": {"class_name": "GlorotUniform", "config": {"seed": null}}, "bias_initializer": {"class_name": "Zeros", "config": {}}, "kernel_regularizer": null, "bias_regularizer": null, "activity_regularizer": null, "kernel_constraint": null, "bias_constraint": null}, "name": "conv2d_702", "inbound_nodes": [[["mixed4", 0, 0, {}]]]}, {"class_name": "BatchNormalization", "config": {"name": "batch_normalization_702", "trainable": false, "dtype": "float32", "axis": [3], "momentum": 0.99, "epsilon": 0.001, "center": true, "scale": false, "beta_initializer": {"class_name": "Zeros", "config": {}}, "gamma_initializer": {"class_name": "Ones", "config": {}}, "moving_mean_initializer": {"class_name": "Zeros", "config": {}}, "moving_variance_initializer": {"class_name": "Ones", "config": {}}, "beta_regularizer": null, "gamma_regularizer": null, "beta_constraint": null, "gamma_constraint": null}, "name": "batch_normalization_702", "inbound_nodes": [[["conv2d_702", 0, 0, {}]]]}, {"class_name": "Activation", "config": {"name": "activation_702", "trainable": false, "dtype": "float32", "activation": "relu"}, "name": "activation_702", "inbound_nodes": [[["batch_normalization_702", 0, 0, {}]]]}, {"class_name": "Conv2D", "config": {"name": "conv2d_703", "trainable": false, "dtype": "float32", "filters": 160, "kernel_size": [7, 1], "strides": [1, 1], "padding": "same", "data_format": "channels_last", "dilation_rate": [1, 1], "groups": 1, "activation": "linear", "use_bias": false, "kernel_initializer": {"class_name": "GlorotUniform", "config": {"seed": null}}, "bias_initializer": {"class_name": "Zeros", "config": {}}, "kernel_regularizer": null, "bias_regularizer": null, "activity_regularizer": null, "kernel_constraint": null, "bias_constraint": null}, "name": "conv2d_703", "inbound_nodes": [[["activation_702", 0, 0, {}]]]}, {"class_name": "BatchNormalization", "config": {"name": "batch_normalization_703", "trainable": false, "dtype": "float32", "axis": [3], "momentum": 0.99, "epsilon": 0.001, "center": true, "scale": false, "beta_initializer": {"class_name": "Zeros", "config": {}}, "gamma_initializer": {"class_name": "Ones", "config": {}}, "moving_mean_initializer": {"class_name": "Zeros", "config": {}}, "moving_variance_initializer": {"class_name": "Ones", "config": {}}, "beta_regularizer": null, "gamma_regularizer": null, "beta_constraint": null, "gamma_constraint": null}, "name": "batch_normalization_703", "inbound_nodes": [[["conv2d_703", 0, 0, {}]]]}, {"class_name": "Activation", "config": {"name": "activation_703", "trainable": false, "dtype": "float32", "activation": "relu"}, "name": "activation_703", "inbound_nodes": [[["batch_normalization_703", 0, 0, {}]]]}, {"class_name": "Conv2D", "config": {"name": "conv2d_699", "trainable": false, "dtype": "float32", "filters": 160, "kernel_size": [1, 1], "strides": [1, 1], "padding": "same", "data_format": "channels_last", "dilation_rate": [1, 1], "groups": 1, "activation": "linear", "use_bias": false, "kernel_initializer": {"class_name": "GlorotUniform", "config": {"seed": null}}, "bias_initializer": {"class_name": "Zeros", "config": {}}, "kernel_regularizer": null, "bias_regularizer": null, "activity_regularizer": null, "kernel_constraint": null, "bias_constraint": null}, "name": "conv2d_699", "inbound_nodes": [[["mixed4", 0, 0, {}]]]}, {"class_name": "Conv2D", "config": {"name": "conv2d_704", "trainable": false, "dtype": "float32", "filters": 160, "kernel_size": [1, 7], "strides": [1, 1], "padding": "same", "data_format": "channels_last", "dilation_rate": [1, 1], "groups": 1, "activation": "linear", "use_bias": false, "kernel_initializer": {"class_name": "GlorotUniform", "config": {"seed": null}}, "bias_initializer": {"class_name": "Zeros", "config": {}}, "kernel_regularizer": null, "bias_regularizer": null, "activity_regularizer": null, "kernel_constraint": null, "bias_constraint": null}, "name": "conv2d_704", "inbound_nodes": [[["activation_703", 0, 0, {}]]]}, {"class_name": "BatchNormalization", "config": {"name": "batch_normalization_699", "trainable": false, "dtype": "float32", "axis": [3], "momentum": 0.99, "epsilon": 0.001, "center": true, "scale": false, "beta_initializer": {"class_name": "Zeros", "config": {}}, "gamma_initializer": {"class_name": "Ones", "config": {}}, "moving_mean_initializer": {"class_name": "Zeros", "config": {}}, "moving_variance_initializer": {"class_name": "Ones", "config": {}}, "beta_regularizer": null, "gamma_regularizer": null, "beta_constraint": null, "gamma_constraint": null}, "name": "batch_normalization_699", "inbound_nodes": [[["conv2d_699", 0, 0, {}]]]}, {"class_name": "BatchNormalization", "config": {"name": "batch_normalization_704", "trainable": false, "dtype": "float32", "axis": [3], "momentum": 0.99, "epsilon": 0.001, "center": true, "scale": false, "beta_initializer": {"class_name": "Zeros", "config": {}}, "gamma_initializer": {"class_name": "Ones", "config": {}}, "moving_mean_initializer": {"class_name": "Zeros", "config": {}}, "moving_variance_initializer": {"class_name": "Ones", "config": {}}, "beta_regularizer": null, "gamma_regularizer": null, "beta_constraint": null, "gamma_constraint": null}, "name": "batch_normalization_704", "inbound_nodes": [[["conv2d_704", 0, 0, {}]]]}, {"class_name": "Activation", "config": {"name": "activation_699", "trainable": false, "dtype": "float32", "activation": "relu"}, "name": "activation_699", "inbound_nodes": [[["batch_normalization_699", 0, 0, {}]]]}, {"class_name": "Activation", "config": {"name": "activation_704", "trainable": false, "dtype": "float32", "activation": "relu"}, "name": "activation_704", "inbound_nodes": [[["batch_normalization_704", 0, 0, {}]]]}, {"class_name": "Conv2D", "config": {"name": "conv2d_700", "trainable": false, "dtype": "float32", "filters": 160, "kernel_size": [1, 7], "strides": [1, 1], "padding": "same", "data_format": "channels_last", "dilation_rate": [1, 1], "groups": 1, "activation": "linear", "use_bias": false, "kernel_initializer": {"class_name": "GlorotUniform", "config": {"seed": null}}, "bias_initializer": {"class_name": "Zeros", "config": {}}, "kernel_regularizer": null, "bias_regularizer": null, "activity_regularizer": null, "kernel_constraint": null, "bias_constraint": null}, "name": "conv2d_700", "inbound_nodes": [[["activation_699", 0, 0, {}]]]}, {"class_name": "Conv2D", "config": {"name": "conv2d_705", "trainable": false, "dtype": "float32", "filters": 160, "kernel_size": [7, 1], "strides": [1, 1], "padding": "same", "data_format": "channels_last", "dilation_rate": [1, 1], "groups": 1, "activation": "linear", "use_bias": false, "kernel_initializer": {"class_name": "GlorotUniform", "config": {"seed": null}}, "bias_initializer": {"class_name": "Zeros", "config": {}}, "kernel_regularizer": null, "bias_regularizer": null, "activity_regularizer": null, "kernel_constraint": null, "bias_constraint": null}, "name": "conv2d_705", "inbound_nodes": [[["activation_704", 0, 0, {}]]]}, {"class_name": "BatchNormalization", "config": {"name": "batch_normalization_700", "trainable": false, "dtype": "float32", "axis": [3], "momentum": 0.99, "epsilon": 0.001, "center": true, "scale": false, "beta_initializer": {"class_name": "Zeros", "config": {}}, "gamma_initializer": {"class_name": "Ones", "config": {}}, "moving_mean_initializer": {"class_name": "Zeros", "config": {}}, "moving_variance_initializer": {"class_name": "Ones", "config": {}}, "beta_regularizer": null, "gamma_regularizer": null, "beta_constraint": null, "gamma_constraint": null}, "name": "batch_normalization_700", "inbound_nodes": [[["conv2d_700", 0, 0, {}]]]}, {"class_name": "BatchNormalization", "config": {"name": "batch_normalization_705", "trainable": false, "dtype": "float32", "axis": [3], "momentum": 0.99, "epsilon": 0.001, "center": true, "scale": false, "beta_initializer": {"class_name": "Zeros", "config": {}}, "gamma_initializer": {"class_name": "Ones", "config": {}}, "moving_mean_initializer": {"class_name": "Zeros", "config": {}}, "moving_variance_initializer": {"class_name": "Ones", "config": {}}, "beta_regularizer": null, "gamma_regularizer": null, "beta_constraint": null, "gamma_constraint": null}, "name": "batch_normalization_705", "inbound_nodes": [[["conv2d_705", 0, 0, {}]]]}, {"class_name": "Activation", "config": {"name": "activation_700", "trainable": false, "dtype": "float32", "activation": "relu"}, "name": "activation_700", "inbound_nodes": [[["batch_normalization_700", 0, 0, {}]]]}, {"class_name": "Activation", "config": {"name": "activation_705", "trainable": false, "dtype": "float32", "activation": "relu"}, "name": "activation_705", "inbound_nodes": [[["batch_normalization_705", 0, 0, {}]]]}, {"class_name": "AveragePooling2D", "config": {"name": "average_pooling2d_67", "trainable": false, "dtype": "float32", "pool_size": [3, 3], "padding": "same", "strides": [1, 1], "data_format": "channels_last"}, "name": "average_pooling2d_67", "inbound_nodes": [[["mixed4", 0, 0, {}]]]}, {"class_name": "Conv2D", "config": {"name": "conv2d_698", "trainable": false, "dtype": "float32", "filters": 192, "kernel_size": [1, 1], "strides": [1, 1], "padding": "same", "data_format": "channels_last", "dilation_rate": [1, 1], "groups": 1, "activation": "linear", "use_bias": false, "kernel_initializer": {"class_name": "GlorotUniform", "config": {"seed": null}}, "bias_initializer": {"class_name": "Zeros", "config": {}}, "kernel_regularizer": null, "bias_regularizer": null, "activity_regularizer": null, "kernel_constraint": null, "bias_constraint": null}, "name": "conv2d_698", "inbound_nodes": [[["mixed4", 0, 0, {}]]]}, {"class_name": "Conv2D", "config": {"name": "conv2d_701", "trainable": false, "dtype": "float32", "filters": 192, "kernel_size": [7, 1], "strides": [1, 1], "padding": "same", "data_format": "channels_last", "dilation_rate": [1, 1], "groups": 1, "activation": "linear", "use_bias": false, "kernel_initializer": {"class_name": "GlorotUniform", "config": {"seed": null}}, "bias_initializer": {"class_name": "Zeros", "config": {}}, "kernel_regularizer": null, "bias_regularizer": null, "activity_regularizer": null, "kernel_constraint": null, "bias_constraint": null}, "name": "conv2d_701", "inbound_nodes": [[["activation_700", 0, 0, {}]]]}, {"class_name": "Conv2D", "config": {"name": "conv2d_706", "trainable": false, "dtype": "float32", "filters": 192, "kernel_size": [1, 7], "strides": [1, 1], "padding": "same", "data_format": "channels_last", "dilation_rate": [1, 1], "groups": 1, "activation": "linear", "use_bias": false, "kernel_initializer": {"class_name": "GlorotUniform", "config": {"seed": null}}, "bias_initializer": {"class_name": "Zeros", "config": {}}, "kernel_regularizer": null, "bias_regularizer": null, "activity_regularizer": null, "kernel_constraint": null, "bias_constraint": null}, "name": "conv2d_706", "inbound_nodes": [[["activation_705", 0, 0, {}]]]}, {"class_name": "Conv2D", "config": {"name": "conv2d_707", "trainable": false, "dtype": "float32", "filters": 192, "kernel_size": [1, 1], "strides": [1, 1], "padding": "same", "data_format": "channels_last", "dilation_rate": [1, 1], "groups": 1, "activation": "linear", "use_bias": false, "kernel_initializer": {"class_name": "GlorotUniform", "config": {"seed": null}}, "bias_initializer": {"class_name": "Zeros", "config": {}}, "kernel_regularizer": null, "bias_regularizer": null, "activity_regularizer": null, "kernel_constraint": null, "bias_constraint": null}, "name": "conv2d_707", "inbound_nodes": [[["average_pooling2d_67", 0, 0, {}]]]}, {"class_name": "BatchNormalization", "config": {"name": "batch_normalization_698", "trainable": false, "dtype": "float32", "axis": [3], "momentum": 0.99, "epsilon": 0.001, "center": true, "scale": false, "beta_initializer": {"class_name": "Zeros", "config": {}}, "gamma_initializer": {"class_name": "Ones", "config": {}}, "moving_mean_initializer": {"class_name": "Zeros", "config": {}}, "moving_variance_initializer": {"class_name": "Ones", "config": {}}, "beta_regularizer": null, "gamma_regularizer": null, "beta_constraint": null, "gamma_constraint": null}, "name": "batch_normalization_698", "inbound_nodes": [[["conv2d_698", 0, 0, {}]]]}, {"class_name": "BatchNormalization", "config": {"name": "batch_normalization_701", "trainable": false, "dtype": "float32", "axis": [3], "momentum": 0.99, "epsilon": 0.001, "center": true, "scale": false, "beta_initializer": {"class_name": "Zeros", "config": {}}, "gamma_initializer": {"class_name": "Ones", "config": {}}, "moving_mean_initializer": {"class_name": "Zeros", "config": {}}, "moving_variance_initializer": {"class_name": "Ones", "config": {}}, "beta_regularizer": null, "gamma_regularizer": null, "beta_constraint": null, "gamma_constraint": null}, "name": "batch_normalization_701", "inbound_nodes": [[["conv2d_701", 0, 0, {}]]]}, {"class_name": "BatchNormalization", "config": {"name": "batch_normalization_706", "trainable": false, "dtype": "float32", "axis": [3], "momentum": 0.99, "epsilon": 0.001, "center": true, "scale": false, "beta_initializer": {"class_name": "Zeros", "config": {}}, "gamma_initializer": {"class_name": "Ones", "config": {}}, "moving_mean_initializer": {"class_name": "Zeros", "config": {}}, "moving_variance_initializer": {"class_name": "Ones", "config": {}}, "beta_regularizer": null, "gamma_regularizer": null, "beta_constraint": null, "gamma_constraint": null}, "name": "batch_normalization_706", "inbound_nodes": [[["conv2d_706", 0, 0, {}]]]}, {"class_name": "BatchNormalization", "config": {"name": "batch_normalization_707", "trainable": false, "dtype": "float32", "axis": [3], "momentum": 0.99, "epsilon": 0.001, "center": true, "scale": false, "beta_initializer": {"class_name": "Zeros", "config": {}}, "gamma_initializer": {"class_name": "Ones", "config": {}}, "moving_mean_initializer": {"class_name": "Zeros", "config": {}}, "moving_variance_initializer": {"class_name": "Ones", "config": {}}, "beta_regularizer": null, "gamma_regularizer": null, "beta_constraint": null, "gamma_constraint": null}, "name": "batch_normalization_707", "inbound_nodes": [[["conv2d_707", 0, 0, {}]]]}, {"class_name": "Activation", "config": {"name": "activation_698", "trainable": false, "dtype": "float32", "activation": "relu"}, "name": "activation_698", "inbound_nodes": [[["batch_normalization_698", 0, 0, {}]]]}, {"class_name": "Activation", "config": {"name": "activation_701", "trainable": false, "dtype": "float32", "activation": "relu"}, "name": "activation_701", "inbound_nodes": [[["batch_normalization_701", 0, 0, {}]]]}, {"class_name": "Activation", "config": {"name": "activation_706", "trainable": false, "dtype": "float32", "activation": "relu"}, "name": "activation_706", "inbound_nodes": [[["batch_normalization_706", 0, 0, {}]]]}, {"class_name": "Activation", "config": {"name": "activation_707", "trainable": false, "dtype": "float32", "activation": "relu"}, "name": "activation_707", "inbound_nodes": [[["batch_normalization_707", 0, 0, {}]]]}, {"class_name": "Concatenate", "config": {"name": "mixed5", "trainable": false, "dtype": "float32", "axis": 3}, "name": "mixed5", "inbound_nodes": [[["activation_698", 0, 0, {}], ["activation_701", 0, 0, {}], ["activation_706", 0, 0, {}], ["activation_707", 0, 0, {}]]]}, {"class_name": "Conv2D", "config": {"name": "conv2d_712", "trainable": false, "dtype": "float32", "filters": 160, "kernel_size": [1, 1], "strides": [1, 1], "padding": "same", "data_format": "channels_last", "dilation_rate": [1, 1], "groups": 1, "activation": "linear", "use_bias": false, "kernel_initializer": {"class_name": "GlorotUniform", "config": {"seed": null}}, "bias_initializer": {"class_name": "Zeros", "config": {}}, "kernel_regularizer": null, "bias_regularizer": null, "activity_regularizer": null, "kernel_constraint": null, "bias_constraint": null}, "name": "conv2d_712", "inbound_nodes": [[["mixed5", 0, 0, {}]]]}, {"class_name": "BatchNormalization", "config": {"name": "batch_normalization_712", "trainable": false, "dtype": "float32", "axis": [3], "momentum": 0.99, "epsilon": 0.001, "center": true, "scale": false, "beta_initializer": {"class_name": "Zeros", "config": {}}, "gamma_initializer": {"class_name": "Ones", "config": {}}, "moving_mean_initializer": {"class_name": "Zeros", "config": {}}, "moving_variance_initializer": {"class_name": "Ones", "config": {}}, "beta_regularizer": null, "gamma_regularizer": null, "beta_constraint": null, "gamma_constraint": null}, "name": "batch_normalization_712", "inbound_nodes": [[["conv2d_712", 0, 0, {}]]]}, {"class_name": "Activation", "config": {"name": "activation_712", "trainable": false, "dtype": "float32", "activation": "relu"}, "name": "activation_712", "inbound_nodes": [[["batch_normalization_712", 0, 0, {}]]]}, {"class_name": "Conv2D", "config": {"name": "conv2d_713", "trainable": false, "dtype": "float32", "filters": 160, "kernel_size": [7, 1], "strides": [1, 1], "padding": "same", "data_format": "channels_last", "dilation_rate": [1, 1], "groups": 1, "activation": "linear", "use_bias": false, "kernel_initializer": {"class_name": "GlorotUniform", "config": {"seed": null}}, "bias_initializer": {"class_name": "Zeros", "config": {}}, "kernel_regularizer": null, "bias_regularizer": null, "activity_regularizer": null, "kernel_constraint": null, "bias_constraint": null}, "name": "conv2d_713", "inbound_nodes": [[["activation_712", 0, 0, {}]]]}, {"class_name": "BatchNormalization", "config": {"name": "batch_normalization_713", "trainable": false, "dtype": "float32", "axis": [3], "momentum": 0.99, "epsilon": 0.001, "center": true, "scale": false, "beta_initializer": {"class_name": "Zeros", "config": {}}, "gamma_initializer": {"class_name": "Ones", "config": {}}, "moving_mean_initializer": {"class_name": "Zeros", "config": {}}, "moving_variance_initializer": {"class_name": "Ones", "config": {}}, "beta_regularizer": null, "gamma_regularizer": null, "beta_constraint": null, "gamma_constraint": null}, "name": "batch_normalization_713", "inbound_nodes": [[["conv2d_713", 0, 0, {}]]]}, {"class_name": "Activation", "config": {"name": "activation_713", "trainable": false, "dtype": "float32", "activation": "relu"}, "name": "activation_713", "inbound_nodes": [[["batch_normalization_713", 0, 0, {}]]]}, {"class_name": "Conv2D", "config": {"name": "conv2d_709", "trainable": false, "dtype": "float32", "filters": 160, "kernel_size": [1, 1], "strides": [1, 1], "padding": "same", "data_format": "channels_last", "dilation_rate": [1, 1], "groups": 1, "activation": "linear", "use_bias": false, "kernel_initializer": {"class_name": "GlorotUniform", "config": {"seed": null}}, "bias_initializer": {"class_name": "Zeros", "config": {}}, "kernel_regularizer": null, "bias_regularizer": null, "activity_regularizer": null, "kernel_constraint": null, "bias_constraint": null}, "name": "conv2d_709", "inbound_nodes": [[["mixed5", 0, 0, {}]]]}, {"class_name": "Conv2D", "config": {"name": "conv2d_714", "trainable": false, "dtype": "float32", "filters": 160, "kernel_size": [1, 7], "strides": [1, 1], "padding": "same", "data_format": "channels_last", "dilation_rate": [1, 1], "groups": 1, "activation": "linear", "use_bias": false, "kernel_initializer": {"class_name": "GlorotUniform", "config": {"seed": null}}, "bias_initializer": {"class_name": "Zeros", "config": {}}, "kernel_regularizer": null, "bias_regularizer": null, "activity_regularizer": null, "kernel_constraint": null, "bias_constraint": null}, "name": "conv2d_714", "inbound_nodes": [[["activation_713", 0, 0, {}]]]}, {"class_name": "BatchNormalization", "config": {"name": "batch_normalization_709", "trainable": false, "dtype": "float32", "axis": [3], "momentum": 0.99, "epsilon": 0.001, "center": true, "scale": false, "beta_initializer": {"class_name": "Zeros", "config": {}}, "gamma_initializer": {"class_name": "Ones", "config": {}}, "moving_mean_initializer": {"class_name": "Zeros", "config": {}}, "moving_variance_initializer": {"class_name": "Ones", "config": {}}, "beta_regularizer": null, "gamma_regularizer": null, "beta_constraint": null, "gamma_constraint": null}, "name": "batch_normalization_709", "inbound_nodes": [[["conv2d_709", 0, 0, {}]]]}, {"class_name": "BatchNormalization", "config": {"name": "batch_normalization_714", "trainable": false, "dtype": "float32", "axis": [3], "momentum": 0.99, "epsilon": 0.001, "center": true, "scale": false, "beta_initializer": {"class_name": "Zeros", "config": {}}, "gamma_initializer": {"class_name": "Ones", "config": {}}, "moving_mean_initializer": {"class_name": "Zeros", "config": {}}, "moving_variance_initializer": {"class_name": "Ones", "config": {}}, "beta_regularizer": null, "gamma_regularizer": null, "beta_constraint": null, "gamma_constraint": null}, "name": "batch_normalization_714", "inbound_nodes": [[["conv2d_714", 0, 0, {}]]]}, {"class_name": "Activation", "config": {"name": "activation_709", "trainable": false, "dtype": "float32", "activation": "relu"}, "name": "activation_709", "inbound_nodes": [[["batch_normalization_709", 0, 0, {}]]]}, {"class_name": "Activation", "config": {"name": "activation_714", "trainable": false, "dtype": "float32", "activation": "relu"}, "name": "activation_714", "inbound_nodes": [[["batch_normalization_714", 0, 0, {}]]]}, {"class_name": "Conv2D", "config": {"name": "conv2d_710", "trainable": false, "dtype": "float32", "filters": 160, "kernel_size": [1, 7], "strides": [1, 1], "padding": "same", "data_format": "channels_last", "dilation_rate": [1, 1], "groups": 1, "activation": "linear", "use_bias": false, "kernel_initializer": {"class_name": "GlorotUniform", "config": {"seed": null}}, "bias_initializer": {"class_name": "Zeros", "config": {}}, "kernel_regularizer": null, "bias_regularizer": null, "activity_regularizer": null, "kernel_constraint": null, "bias_constraint": null}, "name": "conv2d_710", "inbound_nodes": [[["activation_709", 0, 0, {}]]]}, {"class_name": "Conv2D", "config": {"name": "conv2d_715", "trainable": false, "dtype": "float32", "filters": 160, "kernel_size": [7, 1], "strides": [1, 1], "padding": "same", "data_format": "channels_last", "dilation_rate": [1, 1], "groups": 1, "activation": "linear", "use_bias": false, "kernel_initializer": {"class_name": "GlorotUniform", "config": {"seed": null}}, "bias_initializer": {"class_name": "Zeros", "config": {}}, "kernel_regularizer": null, "bias_regularizer": null, "activity_regularizer": null, "kernel_constraint": null, "bias_constraint": null}, "name": "conv2d_715", "inbound_nodes": [[["activation_714", 0, 0, {}]]]}, {"class_name": "BatchNormalization", "config": {"name": "batch_normalization_710", "trainable": false, "dtype": "float32", "axis": [3], "momentum": 0.99, "epsilon": 0.001, "center": true, "scale": false, "beta_initializer": {"class_name": "Zeros", "config": {}}, "gamma_initializer": {"class_name": "Ones", "config": {}}, "moving_mean_initializer": {"class_name": "Zeros", "config": {}}, "moving_variance_initializer": {"class_name": "Ones", "config": {}}, "beta_regularizer": null, "gamma_regularizer": null, "beta_constraint": null, "gamma_constraint": null}, "name": "batch_normalization_710", "inbound_nodes": [[["conv2d_710", 0, 0, {}]]]}, {"class_name": "BatchNormalization", "config": {"name": "batch_normalization_715", "trainable": false, "dtype": "float32", "axis": [3], "momentum": 0.99, "epsilon": 0.001, "center": true, "scale": false, "beta_initializer": {"class_name": "Zeros", "config": {}}, "gamma_initializer": {"class_name": "Ones", "config": {}}, "moving_mean_initializer": {"class_name": "Zeros", "config": {}}, "moving_variance_initializer": {"class_name": "Ones", "config": {}}, "beta_regularizer": null, "gamma_regularizer": null, "beta_constraint": null, "gamma_constraint": null}, "name": "batch_normalization_715", "inbound_nodes": [[["conv2d_715", 0, 0, {}]]]}, {"class_name": "Activation", "config": {"name": "activation_710", "trainable": false, "dtype": "float32", "activation": "relu"}, "name": "activation_710", "inbound_nodes": [[["batch_normalization_710", 0, 0, {}]]]}, {"class_name": "Activation", "config": {"name": "activation_715", "trainable": false, "dtype": "float32", "activation": "relu"}, "name": "activation_715", "inbound_nodes": [[["batch_normalization_715", 0, 0, {}]]]}, {"class_name": "AveragePooling2D", "config": {"name": "average_pooling2d_68", "trainable": false, "dtype": "float32", "pool_size": [3, 3], "padding": "same", "strides": [1, 1], "data_format": "channels_last"}, "name": "average_pooling2d_68", "inbound_nodes": [[["mixed5", 0, 0, {}]]]}, {"class_name": "Conv2D", "config": {"name": "conv2d_708", "trainable": false, "dtype": "float32", "filters": 192, "kernel_size": [1, 1], "strides": [1, 1], "padding": "same", "data_format": "channels_last", "dilation_rate": [1, 1], "groups": 1, "activation": "linear", "use_bias": false, "kernel_initializer": {"class_name": "GlorotUniform", "config": {"seed": null}}, "bias_initializer": {"class_name": "Zeros", "config": {}}, "kernel_regularizer": null, "bias_regularizer": null, "activity_regularizer": null, "kernel_constraint": null, "bias_constraint": null}, "name": "conv2d_708", "inbound_nodes": [[["mixed5", 0, 0, {}]]]}, {"class_name": "Conv2D", "config": {"name": "conv2d_711", "trainable": false, "dtype": "float32", "filters": 192, "kernel_size": [7, 1], "strides": [1, 1], "padding": "same", "data_format": "channels_last", "dilation_rate": [1, 1], "groups": 1, "activation": "linear", "use_bias": false, "kernel_initializer": {"class_name": "GlorotUniform", "config": {"seed": null}}, "bias_initializer": {"class_name": "Zeros", "config": {}}, "kernel_regularizer": null, "bias_regularizer": null, "activity_regularizer": null, "kernel_constraint": null, "bias_constraint": null}, "name": "conv2d_711", "inbound_nodes": [[["activation_710", 0, 0, {}]]]}, {"class_name": "Conv2D", "config": {"name": "conv2d_716", "trainable": false, "dtype": "float32", "filters": 192, "kernel_size": [1, 7], "strides": [1, 1], "padding": "same", "data_format": "channels_last", "dilation_rate": [1, 1], "groups": 1, "activation": "linear", "use_bias": false, "kernel_initializer": {"class_name": "GlorotUniform", "config": {"seed": null}}, "bias_initializer": {"class_name": "Zeros", "config": {}}, "kernel_regularizer": null, "bias_regularizer": null, "activity_regularizer": null, "kernel_constraint": null, "bias_constraint": null}, "name": "conv2d_716", "inbound_nodes": [[["activation_715", 0, 0, {}]]]}, {"class_name": "Conv2D", "config": {"name": "conv2d_717", "trainable": false, "dtype": "float32", "filters": 192, "kernel_size": [1, 1], "strides": [1, 1], "padding": "same", "data_format": "channels_last", "dilation_rate": [1, 1], "groups": 1, "activation": "linear", "use_bias": false, "kernel_initializer": {"class_name": "GlorotUniform", "config": {"seed": null}}, "bias_initializer": {"class_name": "Zeros", "config": {}}, "kernel_regularizer": null, "bias_regularizer": null, "activity_regularizer": null, "kernel_constraint": null, "bias_constraint": null}, "name": "conv2d_717", "inbound_nodes": [[["average_pooling2d_68", 0, 0, {}]]]}, {"class_name": "BatchNormalization", "config": {"name": "batch_normalization_708", "trainable": false, "dtype": "float32", "axis": [3], "momentum": 0.99, "epsilon": 0.001, "center": true, "scale": false, "beta_initializer": {"class_name": "Zeros", "config": {}}, "gamma_initializer": {"class_name": "Ones", "config": {}}, "moving_mean_initializer": {"class_name": "Zeros", "config": {}}, "moving_variance_initializer": {"class_name": "Ones", "config": {}}, "beta_regularizer": null, "gamma_regularizer": null, "beta_constraint": null, "gamma_constraint": null}, "name": "batch_normalization_708", "inbound_nodes": [[["conv2d_708", 0, 0, {}]]]}, {"class_name": "BatchNormalization", "config": {"name": "batch_normalization_711", "trainable": false, "dtype": "float32", "axis": [3], "momentum": 0.99, "epsilon": 0.001, "center": true, "scale": false, "beta_initializer": {"class_name": "Zeros", "config": {}}, "gamma_initializer": {"class_name": "Ones", "config": {}}, "moving_mean_initializer": {"class_name": "Zeros", "config": {}}, "moving_variance_initializer": {"class_name": "Ones", "config": {}}, "beta_regularizer": null, "gamma_regularizer": null, "beta_constraint": null, "gamma_constraint": null}, "name": "batch_normalization_711", "inbound_nodes": [[["conv2d_711", 0, 0, {}]]]}, {"class_name": "BatchNormalization", "config": {"name": "batch_normalization_716", "trainable": false, "dtype": "float32", "axis": [3], "momentum": 0.99, "epsilon": 0.001, "center": true, "scale": false, "beta_initializer": {"class_name": "Zeros", "config": {}}, "gamma_initializer": {"class_name": "Ones", "config": {}}, "moving_mean_initializer": {"class_name": "Zeros", "config": {}}, "moving_variance_initializer": {"class_name": "Ones", "config": {}}, "beta_regularizer": null, "gamma_regularizer": null, "beta_constraint": null, "gamma_constraint": null}, "name": "batch_normalization_716", "inbound_nodes": [[["conv2d_716", 0, 0, {}]]]}, {"class_name": "BatchNormalization", "config": {"name": "batch_normalization_717", "trainable": false, "dtype": "float32", "axis": [3], "momentum": 0.99, "epsilon": 0.001, "center": true, "scale": false, "beta_initializer": {"class_name": "Zeros", "config": {}}, "gamma_initializer": {"class_name": "Ones", "config": {}}, "moving_mean_initializer": {"class_name": "Zeros", "config": {}}, "moving_variance_initializer": {"class_name": "Ones", "config": {}}, "beta_regularizer": null, "gamma_regularizer": null, "beta_constraint": null, "gamma_constraint": null}, "name": "batch_normalization_717", "inbound_nodes": [[["conv2d_717", 0, 0, {}]]]}, {"class_name": "Activation", "config": {"name": "activation_708", "trainable": false, "dtype": "float32", "activation": "relu"}, "name": "activation_708", "inbound_nodes": [[["batch_normalization_708", 0, 0, {}]]]}, {"class_name": "Activation", "config": {"name": "activation_711", "trainable": false, "dtype": "float32", "activation": "relu"}, "name": "activation_711", "inbound_nodes": [[["batch_normalization_711", 0, 0, {}]]]}, {"class_name": "Activation", "config": {"name": "activation_716", "trainable": false, "dtype": "float32", "activation": "relu"}, "name": "activation_716", "inbound_nodes": [[["batch_normalization_716", 0, 0, {}]]]}, {"class_name": "Activation", "config": {"name": "activation_717", "trainable": false, "dtype": "float32", "activation": "relu"}, "name": "activation_717", "inbound_nodes": [[["batch_normalization_717", 0, 0, {}]]]}, {"class_name": "Concatenate", "config": {"name": "mixed6", "trainable": false, "dtype": "float32", "axis": 3}, "name": "mixed6", "inbound_nodes": [[["activation_708", 0, 0, {}], ["activation_711", 0, 0, {}], ["activation_716", 0, 0, {}], ["activation_717", 0, 0, {}]]]}, {"class_name": "Conv2D", "config": {"name": "conv2d_722", "trainable": false, "dtype": "float32", "filters": 192, "kernel_size": [1, 1], "strides": [1, 1], "padding": "same", "data_format": "channels_last", "dilation_rate": [1, 1], "groups": 1, "activation": "linear", "use_bias": false, "kernel_initializer": {"class_name": "GlorotUniform", "config": {"seed": null}}, "bias_initializer": {"class_name": "Zeros", "config": {}}, "kernel_regularizer": null, "bias_regularizer": null, "activity_regularizer": null, "kernel_constraint": null, "bias_constraint": null}, "name": "conv2d_722", "inbound_nodes": [[["mixed6", 0, 0, {}]]]}, {"class_name": "BatchNormalization", "config": {"name": "batch_normalization_722", "trainable": false, "dtype": "float32", "axis": [3], "momentum": 0.99, "epsilon": 0.001, "center": true, "scale": false, "beta_initializer": {"class_name": "Zeros", "config": {}}, "gamma_initializer": {"class_name": "Ones", "config": {}}, "moving_mean_initializer": {"class_name": "Zeros", "config": {}}, "moving_variance_initializer": {"class_name": "Ones", "config": {}}, "beta_regularizer": null, "gamma_regularizer": null, "beta_constraint": null, "gamma_constraint": null}, "name": "batch_normalization_722", "inbound_nodes": [[["conv2d_722", 0, 0, {}]]]}, {"class_name": "Activation", "config": {"name": "activation_722", "trainable": false, "dtype": "float32", "activation": "relu"}, "name": "activation_722", "inbound_nodes": [[["batch_normalization_722", 0, 0, {}]]]}, {"class_name": "Conv2D", "config": {"name": "conv2d_723", "trainable": false, "dtype": "float32", "filters": 192, "kernel_size": [7, 1], "strides": [1, 1], "padding": "same", "data_format": "channels_last", "dilation_rate": [1, 1], "groups": 1, "activation": "linear", "use_bias": false, "kernel_initializer": {"class_name": "GlorotUniform", "config": {"seed": null}}, "bias_initializer": {"class_name": "Zeros", "config": {}}, "kernel_regularizer": null, "bias_regularizer": null, "activity_regularizer": null, "kernel_constraint": null, "bias_constraint": null}, "name": "conv2d_723", "inbound_nodes": [[["activation_722", 0, 0, {}]]]}, {"class_name": "BatchNormalization", "config": {"name": "batch_normalization_723", "trainable": false, "dtype": "float32", "axis": [3], "momentum": 0.99, "epsilon": 0.001, "center": true, "scale": false, "beta_initializer": {"class_name": "Zeros", "config": {}}, "gamma_initializer": {"class_name": "Ones", "config": {}}, "moving_mean_initializer": {"class_name": "Zeros", "config": {}}, "moving_variance_initializer": {"class_name": "Ones", "config": {}}, "beta_regularizer": null, "gamma_regularizer": null, "beta_constraint": null, "gamma_constraint": null}, "name": "batch_normalization_723", "inbound_nodes": [[["conv2d_723", 0, 0, {}]]]}, {"class_name": "Activation", "config": {"name": "activation_723", "trainable": false, "dtype": "float32", "activation": "relu"}, "name": "activation_723", "inbound_nodes": [[["batch_normalization_723", 0, 0, {}]]]}, {"class_name": "Conv2D", "config": {"name": "conv2d_719", "trainable": false, "dtype": "float32", "filters": 192, "kernel_size": [1, 1], "strides": [1, 1], "padding": "same", "data_format": "channels_last", "dilation_rate": [1, 1], "groups": 1, "activation": "linear", "use_bias": false, "kernel_initializer": {"class_name": "GlorotUniform", "config": {"seed": null}}, "bias_initializer": {"class_name": "Zeros", "config": {}}, "kernel_regularizer": null, "bias_regularizer": null, "activity_regularizer": null, "kernel_constraint": null, "bias_constraint": null}, "name": "conv2d_719", "inbound_nodes": [[["mixed6", 0, 0, {}]]]}, {"class_name": "Conv2D", "config": {"name": "conv2d_724", "trainable": false, "dtype": "float32", "filters": 192, "kernel_size": [1, 7], "strides": [1, 1], "padding": "same", "data_format": "channels_last", "dilation_rate": [1, 1], "groups": 1, "activation": "linear", "use_bias": false, "kernel_initializer": {"class_name": "GlorotUniform", "config": {"seed": null}}, "bias_initializer": {"class_name": "Zeros", "config": {}}, "kernel_regularizer": null, "bias_regularizer": null, "activity_regularizer": null, "kernel_constraint": null, "bias_constraint": null}, "name": "conv2d_724", "inbound_nodes": [[["activation_723", 0, 0, {}]]]}, {"class_name": "BatchNormalization", "config": {"name": "batch_normalization_719", "trainable": false, "dtype": "float32", "axis": [3], "momentum": 0.99, "epsilon": 0.001, "center": true, "scale": false, "beta_initializer": {"class_name": "Zeros", "config": {}}, "gamma_initializer": {"class_name": "Ones", "config": {}}, "moving_mean_initializer": {"class_name": "Zeros", "config": {}}, "moving_variance_initializer": {"class_name": "Ones", "config": {}}, "beta_regularizer": null, "gamma_regularizer": null, "beta_constraint": null, "gamma_constraint": null}, "name": "batch_normalization_719", "inbound_nodes": [[["conv2d_719", 0, 0, {}]]]}, {"class_name": "BatchNormalization", "config": {"name": "batch_normalization_724", "trainable": false, "dtype": "float32", "axis": [3], "momentum": 0.99, "epsilon": 0.001, "center": true, "scale": false, "beta_initializer": {"class_name": "Zeros", "config": {}}, "gamma_initializer": {"class_name": "Ones", "config": {}}, "moving_mean_initializer": {"class_name": "Zeros", "config": {}}, "moving_variance_initializer": {"class_name": "Ones", "config": {}}, "beta_regularizer": null, "gamma_regularizer": null, "beta_constraint": null, "gamma_constraint": null}, "name": "batch_normalization_724", "inbound_nodes": [[["conv2d_724", 0, 0, {}]]]}, {"class_name": "Activation", "config": {"name": "activation_719", "trainable": false, "dtype": "float32", "activation": "relu"}, "name": "activation_719", "inbound_nodes": [[["batch_normalization_719", 0, 0, {}]]]}, {"class_name": "Activation", "config": {"name": "activation_724", "trainable": false, "dtype": "float32", "activation": "relu"}, "name": "activation_724", "inbound_nodes": [[["batch_normalization_724", 0, 0, {}]]]}, {"class_name": "Conv2D", "config": {"name": "conv2d_720", "trainable": false, "dtype": "float32", "filters": 192, "kernel_size": [1, 7], "strides": [1, 1], "padding": "same", "data_format": "channels_last", "dilation_rate": [1, 1], "groups": 1, "activation": "linear", "use_bias": false, "kernel_initializer": {"class_name": "GlorotUniform", "config": {"seed": null}}, "bias_initializer": {"class_name": "Zeros", "config": {}}, "kernel_regularizer": null, "bias_regularizer": null, "activity_regularizer": null, "kernel_constraint": null, "bias_constraint": null}, "name": "conv2d_720", "inbound_nodes": [[["activation_719", 0, 0, {}]]]}, {"class_name": "Conv2D", "config": {"name": "conv2d_725", "trainable": false, "dtype": "float32", "filters": 192, "kernel_size": [7, 1], "strides": [1, 1], "padding": "same", "data_format": "channels_last", "dilation_rate": [1, 1], "groups": 1, "activation": "linear", "use_bias": false, "kernel_initializer": {"class_name": "GlorotUniform", "config": {"seed": null}}, "bias_initializer": {"class_name": "Zeros", "config": {}}, "kernel_regularizer": null, "bias_regularizer": null, "activity_regularizer": null, "kernel_constraint": null, "bias_constraint": null}, "name": "conv2d_725", "inbound_nodes": [[["activation_724", 0, 0, {}]]]}, {"class_name": "BatchNormalization", "config": {"name": "batch_normalization_720", "trainable": false, "dtype": "float32", "axis": [3], "momentum": 0.99, "epsilon": 0.001, "center": true, "scale": false, "beta_initializer": {"class_name": "Zeros", "config": {}}, "gamma_initializer": {"class_name": "Ones", "config": {}}, "moving_mean_initializer": {"class_name": "Zeros", "config": {}}, "moving_variance_initializer": {"class_name": "Ones", "config": {}}, "beta_regularizer": null, "gamma_regularizer": null, "beta_constraint": null, "gamma_constraint": null}, "name": "batch_normalization_720", "inbound_nodes": [[["conv2d_720", 0, 0, {}]]]}, {"class_name": "BatchNormalization", "config": {"name": "batch_normalization_725", "trainable": false, "dtype": "float32", "axis": [3], "momentum": 0.99, "epsilon": 0.001, "center": true, "scale": false, "beta_initializer": {"class_name": "Zeros", "config": {}}, "gamma_initializer": {"class_name": "Ones", "config": {}}, "moving_mean_initializer": {"class_name": "Zeros", "config": {}}, "moving_variance_initializer": {"class_name": "Ones", "config": {}}, "beta_regularizer": null, "gamma_regularizer": null, "beta_constraint": null, "gamma_constraint": null}, "name": "batch_normalization_725", "inbound_nodes": [[["conv2d_725", 0, 0, {}]]]}, {"class_name": "Activation", "config": {"name": "activation_720", "trainable": false, "dtype": "float32", "activation": "relu"}, "name": "activation_720", "inbound_nodes": [[["batch_normalization_720", 0, 0, {}]]]}, {"class_name": "Activation", "config": {"name": "activation_725", "trainable": false, "dtype": "float32", "activation": "relu"}, "name": "activation_725", "inbound_nodes": [[["batch_normalization_725", 0, 0, {}]]]}, {"class_name": "AveragePooling2D", "config": {"name": "average_pooling2d_69", "trainable": false, "dtype": "float32", "pool_size": [3, 3], "padding": "same", "strides": [1, 1], "data_format": "channels_last"}, "name": "average_pooling2d_69", "inbound_nodes": [[["mixed6", 0, 0, {}]]]}, {"class_name": "Conv2D", "config": {"name": "conv2d_718", "trainable": false, "dtype": "float32", "filters": 192, "kernel_size": [1, 1], "strides": [1, 1], "padding": "same", "data_format": "channels_last", "dilation_rate": [1, 1], "groups": 1, "activation": "linear", "use_bias": false, "kernel_initializer": {"class_name": "GlorotUniform", "config": {"seed": null}}, "bias_initializer": {"class_name": "Zeros", "config": {}}, "kernel_regularizer": null, "bias_regularizer": null, "activity_regularizer": null, "kernel_constraint": null, "bias_constraint": null}, "name": "conv2d_718", "inbound_nodes": [[["mixed6", 0, 0, {}]]]}, {"class_name": "Conv2D", "config": {"name": "conv2d_721", "trainable": false, "dtype": "float32", "filters": 192, "kernel_size": [7, 1], "strides": [1, 1], "padding": "same", "data_format": "channels_last", "dilation_rate": [1, 1], "groups": 1, "activation": "linear", "use_bias": false, "kernel_initializer": {"class_name": "GlorotUniform", "config": {"seed": null}}, "bias_initializer": {"class_name": "Zeros", "config": {}}, "kernel_regularizer": null, "bias_regularizer": null, "activity_regularizer": null, "kernel_constraint": null, "bias_constraint": null}, "name": "conv2d_721", "inbound_nodes": [[["activation_720", 0, 0, {}]]]}, {"class_name": "Conv2D", "config": {"name": "conv2d_726", "trainable": false, "dtype": "float32", "filters": 192, "kernel_size": [1, 7], "strides": [1, 1], "padding": "same", "data_format": "channels_last", "dilation_rate": [1, 1], "groups": 1, "activation": "linear", "use_bias": false, "kernel_initializer": {"class_name": "GlorotUniform", "config": {"seed": null}}, "bias_initializer": {"class_name": "Zeros", "config": {}}, "kernel_regularizer": null, "bias_regularizer": null, "activity_regularizer": null, "kernel_constraint": null, "bias_constraint": null}, "name": "conv2d_726", "inbound_nodes": [[["activation_725", 0, 0, {}]]]}, {"class_name": "Conv2D", "config": {"name": "conv2d_727", "trainable": false, "dtype": "float32", "filters": 192, "kernel_size": [1, 1], "strides": [1, 1], "padding": "same", "data_format": "channels_last", "dilation_rate": [1, 1], "groups": 1, "activation": "linear", "use_bias": false, "kernel_initializer": {"class_name": "GlorotUniform", "config": {"seed": null}}, "bias_initializer": {"class_name": "Zeros", "config": {}}, "kernel_regularizer": null, "bias_regularizer": null, "activity_regularizer": null, "kernel_constraint": null, "bias_constraint": null}, "name": "conv2d_727", "inbound_nodes": [[["average_pooling2d_69", 0, 0, {}]]]}, {"class_name": "BatchNormalization", "config": {"name": "batch_normalization_718", "trainable": false, "dtype": "float32", "axis": [3], "momentum": 0.99, "epsilon": 0.001, "center": true, "scale": false, "beta_initializer": {"class_name": "Zeros", "config": {}}, "gamma_initializer": {"class_name": "Ones", "config": {}}, "moving_mean_initializer": {"class_name": "Zeros", "config": {}}, "moving_variance_initializer": {"class_name": "Ones", "config": {}}, "beta_regularizer": null, "gamma_regularizer": null, "beta_constraint": null, "gamma_constraint": null}, "name": "batch_normalization_718", "inbound_nodes": [[["conv2d_718", 0, 0, {}]]]}, {"class_name": "BatchNormalization", "config": {"name": "batch_normalization_721", "trainable": false, "dtype": "float32", "axis": [3], "momentum": 0.99, "epsilon": 0.001, "center": true, "scale": false, "beta_initializer": {"class_name": "Zeros", "config": {}}, "gamma_initializer": {"class_name": "Ones", "config": {}}, "moving_mean_initializer": {"class_name": "Zeros", "config": {}}, "moving_variance_initializer": {"class_name": "Ones", "config": {}}, "beta_regularizer": null, "gamma_regularizer": null, "beta_constraint": null, "gamma_constraint": null}, "name": "batch_normalization_721", "inbound_nodes": [[["conv2d_721", 0, 0, {}]]]}, {"class_name": "BatchNormalization", "config": {"name": "batch_normalization_726", "trainable": false, "dtype": "float32", "axis": [3], "momentum": 0.99, "epsilon": 0.001, "center": true, "scale": false, "beta_initializer": {"class_name": "Zeros", "config": {}}, "gamma_initializer": {"class_name": "Ones", "config": {}}, "moving_mean_initializer": {"class_name": "Zeros", "config": {}}, "moving_variance_initializer": {"class_name": "Ones", "config": {}}, "beta_regularizer": null, "gamma_regularizer": null, "beta_constraint": null, "gamma_constraint": null}, "name": "batch_normalization_726", "inbound_nodes": [[["conv2d_726", 0, 0, {}]]]}, {"class_name": "BatchNormalization", "config": {"name": "batch_normalization_727", "trainable": false, "dtype": "float32", "axis": [3], "momentum": 0.99, "epsilon": 0.001, "center": true, "scale": false, "beta_initializer": {"class_name": "Zeros", "config": {}}, "gamma_initializer": {"class_name": "Ones", "config": {}}, "moving_mean_initializer": {"class_name": "Zeros", "config": {}}, "moving_variance_initializer": {"class_name": "Ones", "config": {}}, "beta_regularizer": null, "gamma_regularizer": null, "beta_constraint": null, "gamma_constraint": null}, "name": "batch_normalization_727", "inbound_nodes": [[["conv2d_727", 0, 0, {}]]]}, {"class_name": "Activation", "config": {"name": "activation_718", "trainable": false, "dtype": "float32", "activation": "relu"}, "name": "activation_718", "inbound_nodes": [[["batch_normalization_718", 0, 0, {}]]]}, {"class_name": "Activation", "config": {"name": "activation_721", "trainable": false, "dtype": "float32", "activation": "relu"}, "name": "activation_721", "inbound_nodes": [[["batch_normalization_721", 0, 0, {}]]]}, {"class_name": "Activation", "config": {"name": "activation_726", "trainable": false, "dtype": "float32", "activation": "relu"}, "name": "activation_726", "inbound_nodes": [[["batch_normalization_726", 0, 0, {}]]]}, {"class_name": "Activation", "config": {"name": "activation_727", "trainable": false, "dtype": "float32", "activation": "relu"}, "name": "activation_727", "inbound_nodes": [[["batch_normalization_727", 0, 0, {}]]]}, {"class_name": "Concatenate", "config": {"name": "mixed7", "trainable": false, "dtype": "float32", "axis": 3}, "name": "mixed7", "inbound_nodes": [[["activation_718", 0, 0, {}], ["activation_721", 0, 0, {}], ["activation_726", 0, 0, {}], ["activation_727", 0, 0, {}]]]}, {"class_name": "Flatten", "config": {"name": "flatten_7", "trainable": true, "dtype": "float32", "data_format": "channels_last"}, "name": "flatten_7", "inbound_nodes": [[["mixed7", 0, 0, {}]]]}, {"class_name": "Dense", "config": {"name": "dense_14", "trainable": true, "dtype": "float32", "units": 64, "activation": "relu", "use_bias": true, "kernel_initializer": {"class_name": "GlorotUniform", "config": {"seed": null}}, "bias_initializer": {"class_name": "Zeros", "config": {}}, "kernel_regularizer": null, "bias_regularizer": null, "activity_regularizer": null, "kernel_constraint": null, "bias_constraint": null}, "name": "dense_14", "inbound_nodes": [[["flatten_7", 0, 0, {}]]]}, {"class_name": "Dropout", "config": {"name": "dropout_7", "trainable": true, "dtype": "float32", "rate": 0.2, "noise_shape": null, "seed": null}, "name": "dropout_7", "inbound_nodes": [[["dense_14", 0, 0, {}]]]}, {"class_name": "Dense", "config": {"name": "dense_15", "trainable": true, "dtype": "float32", "units": 3, "activation": "softmax", "use_bias": true, "kernel_initializer": {"class_name": "GlorotUniform", "config": {"seed": null}}, "bias_initializer": {"class_name": "Zeros", "config": {}}, "kernel_regularizer": null, "bias_regularizer": null, "activity_regularizer": null, "kernel_constraint": null, "bias_constraint": null}, "name": "dense_15", "inbound_nodes": [[["dropout_7", 0, 0, {}]]]}], "input_layers": [["input_8", 0, 0]], "output_layers": [["dense_15", 0, 0]]}}, "training_config": {"loss": "categorical_crossentropy", "metrics": [[{"class_name": "MeanMetricWrapper", "config": {"name": "accuracy", "dtype": "float32", "fn": "categorical_accuracy"}}]], "weighted_metrics": null, "loss_weights": null, "optimizer_config": {"class_name": "Custom>RMSprop", "config": {"name": "RMSprop", "weight_decay": null, "clipnorm": null, "global_clipnorm": null, "clipvalue": null, "use_ema": false, "ema_momentum": 0.99, "ema_overwrite_frequency": 100, "jit_compile": false, "is_legacy_optimizer": false, "learning_rate": 0.0010000000474974513, "rho": 0.9, "momentum": 0.0, "epsilon": 1e-07, "centered": false}}}}, "weightsManifest": [{"paths": ["group1-shard1of11.bin", "group1-shard2of11.bin", "group1-shard3of11.bin", "group1-shard4of11.bin", "group1-shard5of11.bin", "group1-shard6of11.bin", "group1-shard7of11.bin", "group1-shard8of11.bin", "group1-shard9of11.bin", "group1-shard10of11.bin", "group1-shard11of11.bin"], "weights": [{"name": "batch_normalization_658/beta", "shape": [32], "dtype": "float32"}, {"name": "batch_normalization_658/moving_mean", "shape": [32], "dtype": "float32"}, {"name": "batch_normalization_658/moving_variance", "shape": [32], "dtype": "float32"}, {"name": "batch_normalization_659/beta", "shape": [32], "dtype": "float32"}, {"name": "batch_normalization_659/moving_mean", "shape": [32], "dtype": "float32"}, {"name": "batch_normalization_659/moving_variance", "shape": [32], "dtype": "float32"}, {"name": "batch_normalization_660/beta", "shape": [64], "dtype": "float32"}, {"name": "batch_normalization_660/moving_mean", "shape": [64], "dtype": "float32"}, {"name": "batch_normalization_660/moving_variance", "shape": [64], "dtype": "float32"}, {"name": "batch_normalization_661/beta", "shape": [80], "dtype": "float32"}, {"name": "batch_normalization_661/moving_mean", "shape": [80], "dtype": "float32"}, {"name": "batch_normalization_661/moving_variance", "shape": [80], "dtype": "float32"}, {"name": "batch_normalization_662/beta", "shape": [192], "dtype": "float32"}, {"name": "batch_normalization_662/moving_mean", "shape": [192], "dtype": "float32"}, {"name": "batch_normalization_662/moving_variance", "shape": [192], "dtype": "float32"}, {"name": "batch_normalization_663/beta", "shape": [64], "dtype": "float32"}, {"name": "batch_normalization_663/moving_mean", "shape": [64], "dtype": "float32"}, {"name": "batch_normalization_663/moving_variance", "shape": [64], "dtype": "float32"}, {"name": "batch_normalization_664/beta", "shape": [48], "dtype": "float32"}, {"name": "batch_normalization_664/moving_mean", "shape": [48], "dtype": "float32"}, {"name": "batch_normalization_664/moving_variance", "shape": [48], "dtype": "float32"}, {"name": "batch_normalization_665/beta", "shape": [64], "dtype": "float32"}, {"name": "batch_normalization_665/moving_mean", "shape": [64], "dtype": "float32"}, {"name": "batch_normalization_665/moving_variance", "shape": [64], "dtype": "float32"}, {"name": "batch_normalization_666/beta", "shape": [64], "dtype": "float32"}, {"name": "batch_normalization_666/moving_mean", "shape": [64], "dtype": "float32"}, {"name": "batch_normalization_666/moving_variance", "shape": [64], "dtype": "float32"}, {"name": "batch_normalization_667/beta", "shape": [96], "dtype": "float32"}, {"name": "batch_normalization_667/moving_mean", "shape": [96], "dtype": "float32"}, {"name": "batch_normalization_667/moving_variance", "shape": [96], "dtype": "float32"}, {"name": "batch_normalization_668/beta", "shape": [96], "dtype": "float32"}, {"name": "batch_normalization_668/moving_mean", "shape": [96], "dtype": "float32"}, {"name": "batch_normalization_668/moving_variance", "shape": [96], "dtype": "float32"}, {"name": "batch_normalization_669/beta", "shape": [32], "dtype": "float32"}, {"name": "batch_normalization_669/moving_mean", "shape": [32], "dtype": "float32"}, {"name": "batch_normalization_669/moving_variance", "shape": [32], "dtype": "float32"}, {"name": "batch_normalization_670/beta", "shape": [64], "dtype": "float32"}, {"name": "batch_normalization_670/moving_mean", "shape": [64], "dtype": "float32"}, {"name": "batch_normalization_670/moving_variance", "shape": [64], "dtype": "float32"}, {"name": "batch_normalization_671/beta", "shape": [48], "dtype": "float32"}, {"name": "batch_normalization_671/moving_mean", "shape": [48], "dtype": "float32"}, {"name": "batch_normalization_671/moving_variance", "shape": [48], "dtype": "float32"}, {"name": "batch_normalization_672/beta", "shape": [64], "dtype": "float32"}, {"name": "batch_normalization_672/moving_mean", "shape": [64], "dtype": "float32"}, {"name": "batch_normalization_672/moving_variance", "shape": [64], "dtype": "float32"}, {"name": "batch_normalization_673/beta", "shape": [64], "dtype": "float32"}, {"name": "batch_normalization_673/moving_mean", "shape": [64], "dtype": "float32"}, {"name": "batch_normalization_673/moving_variance", "shape": [64], "dtype": "float32"}, {"name": "batch_normalization_674/beta", "shape": [96], "dtype": "float32"}, {"name": "batch_normalization_674/moving_mean", "shape": [96], "dtype": "float32"}, {"name": "batch_normalization_674/moving_variance", "shape": [96], "dtype": "float32"}, {"name": "batch_normalization_675/beta", "shape": [96], "dtype": "float32"}, {"name": "batch_normalization_675/moving_mean", "shape": [96], "dtype": "float32"}, {"name": "batch_normalization_675/moving_variance", "shape": [96], "dtype": "float32"}, {"name": "batch_normalization_676/beta", "shape": [64], "dtype": "float32"}, {"name": "batch_normalization_676/moving_mean", "shape": [64], "dtype": "float32"}, {"name": "batch_normalization_676/moving_variance", "shape": [64], "dtype": "float32"}, {"name": "batch_normalization_677/beta", "shape": [64], "dtype": "float32"}, {"name": "batch_normalization_677/moving_mean", "shape": [64], "dtype": "float32"}, {"name": "batch_normalization_677/moving_variance", "shape": [64], "dtype": "float32"}, {"name": "batch_normalization_678/beta", "shape": [48], "dtype": "float32"}, {"name": "batch_normalization_678/moving_mean", "shape": [48], "dtype": "float32"}, {"name": "batch_normalization_678/moving_variance", "shape": [48], "dtype": "float32"}, {"name": "batch_normalization_679/beta", "shape": [64], "dtype": "float32"}, {"name": "batch_normalization_679/moving_mean", "shape": [64], "dtype": "float32"}, {"name": "batch_normalization_679/moving_variance", "shape": [64], "dtype": "float32"}, {"name": "batch_normalization_680/beta", "shape": [64], "dtype": "float32"}, {"name": "batch_normalization_680/moving_mean", "shape": [64], "dtype": "float32"}, {"name": "batch_normalization_680/moving_variance", "shape": [64], "dtype": "float32"}, {"name": "batch_normalization_681/beta", "shape": [96], "dtype": "float32"}, {"name": "batch_normalization_681/moving_mean", "shape": [96], "dtype": "float32"}, {"name": "batch_normalization_681/moving_variance", "shape": [96], "dtype": "float32"}, {"name": "batch_normalization_682/beta", "shape": [96], "dtype": "float32"}, {"name": "batch_normalization_682/moving_mean", "shape": [96], "dtype": "float32"}, {"name": "batch_normalization_682/moving_variance", "shape": [96], "dtype": "float32"}, {"name": "batch_normalization_683/beta", "shape": [64], "dtype": "float32"}, {"name": "batch_normalization_683/moving_mean", "shape": [64], "dtype": "float32"}, {"name": "batch_normalization_683/moving_variance", "shape": [64], "dtype": "float32"}, {"name": "batch_normalization_684/beta", "shape": [384], "dtype": "float32"}, {"name": "batch_normalization_684/moving_mean", "shape": [384], "dtype": "float32"}, {"name": "batch_normalization_684/moving_variance", "shape": [384], "dtype": "float32"}, {"name": "batch_normalization_685/beta", "shape": [64], "dtype": "float32"}, {"name": "batch_normalization_685/moving_mean", "shape": [64], "dtype": "float32"}, {"name": "batch_normalization_685/moving_variance", "shape": [64], "dtype": "float32"}, {"name": "batch_normalization_686/beta", "shape": [96], "dtype": "float32"}, {"name": "batch_normalization_686/moving_mean", "shape": [96], "dtype": "float32"}, {"name": "batch_normalization_686/moving_variance", "shape": [96], "dtype": "float32"}, {"name": "batch_normalization_687/beta", "shape": [96], "dtype": "float32"}, {"name": "batch_normalization_687/moving_mean", "shape": [96], "dtype": "float32"}, {"name": "batch_normalization_687/moving_variance", "shape": [96], "dtype": "float32"}, {"name": "batch_normalization_688/beta", "shape": [192], "dtype": "float32"}, {"name": "batch_normalization_688/moving_mean", "shape": [192], "dtype": "float32"}, {"name": "batch_normalization_688/moving_variance", "shape": [192], "dtype": "float32"}, {"name": "batch_normalization_689/beta", "shape": [128], "dtype": "float32"}, {"name": "batch_normalization_689/moving_mean", "shape": [128], "dtype": "float32"}, {"name": "batch_normalization_689/moving_variance", "shape": [128], "dtype": "float32"}, {"name": "batch_normalization_690/beta", "shape": [128], "dtype": "float32"}, {"name": "batch_normalization_690/moving_mean", "shape": [128], "dtype": "float32"}, {"name": "batch_normalization_690/moving_variance", "shape": [128], "dtype": "float32"}, {"name": "batch_normalization_691/beta", "shape": [192], "dtype": "float32"}, {"name": "batch_normalization_691/moving_mean", "shape": [192], "dtype": "float32"}, {"name": "batch_normalization_691/moving_variance", "shape": [192], "dtype": "float32"}, {"name": "batch_normalization_692/beta", "shape": [128], "dtype": "float32"}, {"name": "batch_normalization_692/moving_mean", "shape": [128], "dtype": "float32"}, {"name": "batch_normalization_692/moving_variance", "shape": [128], "dtype": "float32"}, {"name": "batch_normalization_693/beta", "shape": [128], "dtype": "float32"}, {"name": "batch_normalization_693/moving_mean", "shape": [128], "dtype": "float32"}, {"name": "batch_normalization_693/moving_variance", "shape": [128], "dtype": "float32"}, {"name": "batch_normalization_694/beta", "shape": [128], "dtype": "float32"}, {"name": "batch_normalization_694/moving_mean", "shape": [128], "dtype": "float32"}, {"name": "batch_normalization_694/moving_variance", "shape": [128], "dtype": "float32"}, {"name": "batch_normalization_695/beta", "shape": [128], "dtype": "float32"}, {"name": "batch_normalization_695/moving_mean", "shape": [128], "dtype": "float32"}, {"name": "batch_normalization_695/moving_variance", "shape": [128], "dtype": "float32"}, {"name": "batch_normalization_696/beta", "shape": [192], "dtype": "float32"}, {"name": "batch_normalization_696/moving_mean", "shape": [192], "dtype": "float32"}, {"name": "batch_normalization_696/moving_variance", "shape": [192], "dtype": "float32"}, {"name": "batch_normalization_697/beta", "shape": [192], "dtype": "float32"}, {"name": "batch_normalization_697/moving_mean", "shape": [192], "dtype": "float32"}, {"name": "batch_normalization_697/moving_variance", "shape": [192], "dtype": "float32"}, {"name": "batch_normalization_698/beta", "shape": [192], "dtype": "float32"}, {"name": "batch_normalization_698/moving_mean", "shape": [192], "dtype": "float32"}, {"name": "batch_normalization_698/moving_variance", "shape": [192], "dtype": "float32"}, {"name": "batch_normalization_699/beta", "shape": [160], "dtype": "float32"}, {"name": "batch_normalization_699/moving_mean", "shape": [160], "dtype": "float32"}, {"name": "batch_normalization_699/moving_variance", "shape": [160], "dtype": "float32"}, {"name": "batch_normalization_700/beta", "shape": [160], "dtype": "float32"}, {"name": "batch_normalization_700/moving_mean", "shape": [160], "dtype": "float32"}, {"name": "batch_normalization_700/moving_variance", "shape": [160], "dtype": "float32"}, {"name": "batch_normalization_701/beta", "shape": [192], "dtype": "float32"}, {"name": "batch_normalization_701/moving_mean", "shape": [192], "dtype": "float32"}, {"name": "batch_normalization_701/moving_variance", "shape": [192], "dtype": "float32"}, {"name": "batch_normalization_702/beta", "shape": [160], "dtype": "float32"}, {"name": "batch_normalization_702/moving_mean", "shape": [160], "dtype": "float32"}, {"name": "batch_normalization_702/moving_variance", "shape": [160], "dtype": "float32"}, {"name": "batch_normalization_703/beta", "shape": [160], "dtype": "float32"}, {"name": "batch_normalization_703/moving_mean", "shape": [160], "dtype": "float32"}, {"name": "batch_normalization_703/moving_variance", "shape": [160], "dtype": "float32"}, {"name": "batch_normalization_704/beta", "shape": [160], "dtype": "float32"}, {"name": "batch_normalization_704/moving_mean", "shape": [160], "dtype": "float32"}, {"name": "batch_normalization_704/moving_variance", "shape": [160], "dtype": "float32"}, {"name": "batch_normalization_705/beta", "shape": [160], "dtype": "float32"}, {"name": "batch_normalization_705/moving_mean", "shape": [160], "dtype": "float32"}, {"name": "batch_normalization_705/moving_variance", "shape": [160], "dtype": "float32"}, {"name": "batch_normalization_706/beta", "shape": [192], "dtype": "float32"}, {"name": "batch_normalization_706/moving_mean", "shape": [192], "dtype": "float32"}, {"name": "batch_normalization_706/moving_variance", "shape": [192], "dtype": "float32"}, {"name": "batch_normalization_707/beta", "shape": [192], "dtype": "float32"}, {"name": "batch_normalization_707/moving_mean", "shape": [192], "dtype": "float32"}, {"name": "batch_normalization_707/moving_variance", "shape": [192], "dtype": "float32"}, {"name": "batch_normalization_708/beta", "shape": [192], "dtype": "float32"}, {"name": "batch_normalization_708/moving_mean", "shape": [192], "dtype": "float32"}, {"name": "batch_normalization_708/moving_variance", "shape": [192], "dtype": "float32"}, {"name": "batch_normalization_709/beta", "shape": [160], "dtype": "float32"}, {"name": "batch_normalization_709/moving_mean", "shape": [160], "dtype": "float32"}, {"name": "batch_normalization_709/moving_variance", "shape": [160], "dtype": "float32"}, {"name": "batch_normalization_710/beta", "shape": [160], "dtype": "float32"}, {"name": "batch_normalization_710/moving_mean", "shape": [160], "dtype": "float32"}, {"name": "batch_normalization_710/moving_variance", "shape": [160], "dtype": "float32"}, {"name": "batch_normalization_711/beta", "shape": [192], "dtype": "float32"}, {"name": "batch_normalization_711/moving_mean", "shape": [192], "dtype": "float32"}, {"name": "batch_normalization_711/moving_variance", "shape": [192], "dtype": "float32"}, {"name": "batch_normalization_712/beta", "shape": [160], "dtype": "float32"}, {"name": "batch_normalization_712/moving_mean", "shape": [160], "dtype": "float32"}, {"name": "batch_normalization_712/moving_variance", "shape": [160], "dtype": "float32"}, {"name": "batch_normalization_713/beta", "shape": [160], "dtype": "float32"}, {"name": "batch_normalization_713/moving_mean", "shape": [160], "dtype": "float32"}, {"name": "batch_normalization_713/moving_variance", "shape": [160], "dtype": "float32"}, {"name": "batch_normalization_714/beta", "shape": [160], "dtype": "float32"}, {"name": "batch_normalization_714/moving_mean", "shape": [160], "dtype": "float32"}, {"name": "batch_normalization_714/moving_variance", "shape": [160], "dtype": "float32"}, {"name": "batch_normalization_715/beta", "shape": [160], "dtype": "float32"}, {"name": "batch_normalization_715/moving_mean", "shape": [160], "dtype": "float32"}, {"name": "batch_normalization_715/moving_variance", "shape": [160], "dtype": "float32"}, {"name": "batch_normalization_716/beta", "shape": [192], "dtype": "float32"}, {"name": "batch_normalization_716/moving_mean", "shape": [192], "dtype": "float32"}, {"name": "batch_normalization_716/moving_variance", "shape": [192], "dtype": "float32"}, {"name": "batch_normalization_717/beta", "shape": [192], "dtype": "float32"}, {"name": "batch_normalization_717/moving_mean", "shape": [192], "dtype": "float32"}, {"name": "batch_normalization_717/moving_variance", "shape": [192], "dtype": "float32"}, {"name": "batch_normalization_718/beta", "shape": [192], "dtype": "float32"}, {"name": "batch_normalization_718/moving_mean", "shape": [192], "dtype": "float32"}, {"name": "batch_normalization_718/moving_variance", "shape": [192], "dtype": "float32"}, {"name": "batch_normalization_719/beta", "shape": [192], "dtype": "float32"}, {"name": "batch_normalization_719/moving_mean", "shape": [192], "dtype": "float32"}, {"name": "batch_normalization_719/moving_variance", "shape": [192], "dtype": "float32"}, {"name": "batch_normalization_720/beta", "shape": [192], "dtype": "float32"}, {"name": "batch_normalization_720/moving_mean", "shape": [192], "dtype": "float32"}, {"name": "batch_normalization_720/moving_variance", "shape": [192], "dtype": "float32"}, {"name": "batch_normalization_721/beta", "shape": [192], "dtype": "float32"}, {"name": "batch_normalization_721/moving_mean", "shape": [192], "dtype": "float32"}, {"name": "batch_normalization_721/moving_variance", "shape": [192], "dtype": "float32"}, {"name": "batch_normalization_722/beta", "shape": [192], "dtype": "float32"}, {"name": "batch_normalization_722/moving_mean", "shape": [192], "dtype": "float32"}, {"name": "batch_normalization_722/moving_variance", "shape": [192], "dtype": "float32"}, {"name": "batch_normalization_723/beta", "shape": [192], "dtype": "float32"}, {"name": "batch_normalization_723/moving_mean", "shape": [192], "dtype": "float32"}, {"name": "batch_normalization_723/moving_variance", "shape": [192], "dtype": "float32"}, {"name": "batch_normalization_724/beta", "shape": [192], "dtype": "float32"}, {"name": "batch_normalization_724/moving_mean", "shape": [192], "dtype": "float32"}, {"name": "batch_normalization_724/moving_variance", "shape": [192], "dtype": "float32"}, {"name": "batch_normalization_725/beta", "shape": [192], "dtype": "float32"}, {"name": "batch_normalization_725/moving_mean", "shape": [192], "dtype": "float32"}, {"name": "batch_normalization_725/moving_variance", "shape": [192], "dtype": "float32"}, {"name": "batch_normalization_726/beta", "shape": [192], "dtype": "float32"}, {"name": "batch_normalization_726/moving_mean", "shape": [192], "dtype": "float32"}, {"name": "batch_normalization_726/moving_variance", "shape": [192], "dtype": "float32"}, {"name": "batch_normalization_727/beta", "shape": [192], "dtype": "float32"}, {"name": "batch_normalization_727/moving_mean", "shape": [192], "dtype": "float32"}, {"name": "batch_normalization_727/moving_variance", "shape": [192], "dtype": "float32"}, {"name": "conv2d_658/kernel", "shape": [3, 3, 3, 32], "dtype": "float32"}, {"name": "conv2d_659/kernel", "shape": [3, 3, 32, 32], "dtype": "float32"}, {"name": "conv2d_660/kernel", "shape": [3, 3, 32, 64], "dtype": "float32"}, {"name": "conv2d_661/kernel", "shape": [1, 1, 64, 80], "dtype": "float32"}, {"name": "conv2d_662/kernel", "shape": [3, 3, 80, 192], "dtype": "float32"}, {"name": "conv2d_663/kernel", "shape": [1, 1, 192, 64], "dtype": "float32"}, {"name": "conv2d_664/kernel", "shape": [1, 1, 192, 48], "dtype": "float32"}, {"name": "conv2d_665/kernel", "shape": [5, 5, 48, 64], "dtype": "float32"}, {"name": "conv2d_666/kernel", "shape": [1, 1, 192, 64], "dtype": "float32"}, {"name": "conv2d_667/kernel", "shape": [3, 3, 64, 96], "dtype": "float32"}, {"name": "conv2d_668/kernel", "shape": [3, 3, 96, 96], "dtype": "float32"}, {"name": "conv2d_669/kernel", "shape": [1, 1, 192, 32], "dtype": "float32"}, {"name": "conv2d_670/kernel", "shape": [1, 1, 256, 64], "dtype": "float32"}, {"name": "conv2d_671/kernel", "shape": [1, 1, 256, 48], "dtype": "float32"}, {"name": "conv2d_672/kernel", "shape": [5, 5, 48, 64], "dtype": "float32"}, {"name": "conv2d_673/kernel", "shape": [1, 1, 256, 64], "dtype": "float32"}, {"name": "conv2d_674/kernel", "shape": [3, 3, 64, 96], "dtype": "float32"}, {"name": "conv2d_675/kernel", "shape": [3, 3, 96, 96], "dtype": "float32"}, {"name": "conv2d_676/kernel", "shape": [1, 1, 256, 64], "dtype": "float32"}, {"name": "conv2d_677/kernel", "shape": [1, 1, 288, 64], "dtype": "float32"}, {"name": "conv2d_678/kernel", "shape": [1, 1, 288, 48], "dtype": "float32"}, {"name": "conv2d_679/kernel", "shape": [5, 5, 48, 64], "dtype": "float32"}, {"name": "conv2d_680/kernel", "shape": [1, 1, 288, 64], "dtype": "float32"}, {"name": "conv2d_681/kernel", "shape": [3, 3, 64, 96], "dtype": "float32"}, {"name": "conv2d_682/kernel", "shape": [3, 3, 96, 96], "dtype": "float32"}, {"name": "conv2d_683/kernel", "shape": [1, 1, 288, 64], "dtype": "float32"}, {"name": "conv2d_684/kernel", "shape": [3, 3, 288, 384], "dtype": "float32"}, {"name": "conv2d_685/kernel", "shape": [1, 1, 288, 64], "dtype": "float32"}, {"name": "conv2d_686/kernel", "shape": [3, 3, 64, 96], "dtype": "float32"}, {"name": "conv2d_687/kernel", "shape": [3, 3, 96, 96], "dtype": "float32"}, {"name": "conv2d_688/kernel", "shape": [1, 1, 768, 192], "dtype": "float32"}, {"name": "conv2d_689/kernel", "shape": [1, 1, 768, 128], "dtype": "float32"}, {"name": "conv2d_690/kernel", "shape": [1, 7, 128, 128], "dtype": "float32"}, {"name": "conv2d_691/kernel", "shape": [7, 1, 128, 192], "dtype": "float32"}, {"name": "conv2d_692/kernel", "shape": [1, 1, 768, 128], "dtype": "float32"}, {"name": "conv2d_693/kernel", "shape": [7, 1, 128, 128], "dtype": "float32"}, {"name": "conv2d_694/kernel", "shape": [1, 7, 128, 128], "dtype": "float32"}, {"name": "conv2d_695/kernel", "shape": [7, 1, 128, 128], "dtype": "float32"}, {"name": "conv2d_696/kernel", "shape": [1, 7, 128, 192], "dtype": "float32"}, {"name": "conv2d_697/kernel", "shape": [1, 1, 768, 192], "dtype": "float32"}, {"name": "conv2d_698/kernel", "shape": [1, 1, 768, 192], "dtype": "float32"}, {"name": "conv2d_699/kernel", "shape": [1, 1, 768, 160], "dtype": "float32"}, {"name": "conv2d_700/kernel", "shape": [1, 7, 160, 160], "dtype": "float32"}, {"name": "conv2d_701/kernel", "shape": [7, 1, 160, 192], "dtype": "float32"}, {"name": "conv2d_702/kernel", "shape": [1, 1, 768, 160], "dtype": "float32"}, {"name": "conv2d_703/kernel", "shape": [7, 1, 160, 160], "dtype": "float32"}, {"name": "conv2d_704/kernel", "shape": [1, 7, 160, 160], "dtype": "float32"}, {"name": "conv2d_705/kernel", "shape": [7, 1, 160, 160], "dtype": "float32"}, {"name": "conv2d_706/kernel", "shape": [1, 7, 160, 192], "dtype": "float32"}, {"name": "conv2d_707/kernel", "shape": [1, 1, 768, 192], "dtype": "float32"}, {"name": "conv2d_708/kernel", "shape": [1, 1, 768, 192], "dtype": "float32"}, {"name": "conv2d_709/kernel", "shape": [1, 1, 768, 160], "dtype": "float32"}, {"name": "conv2d_710/kernel", "shape": [1, 7, 160, 160], "dtype": "float32"}, {"name": "conv2d_711/kernel", "shape": [7, 1, 160, 192], "dtype": "float32"}, {"name": "conv2d_712/kernel", "shape": [1, 1, 768, 160], "dtype": "float32"}, {"name": "conv2d_713/kernel", "shape": [7, 1, 160, 160], "dtype": "float32"}, {"name": "conv2d_714/kernel", "shape": [1, 7, 160, 160], "dtype": "float32"}, {"name": "conv2d_715/kernel", "shape": [7, 1, 160, 160], "dtype": "float32"}, {"name": "conv2d_716/kernel", "shape": [1, 7, 160, 192], "dtype": "float32"}, {"name": "conv2d_717/kernel", "shape": [1, 1, 768, 192], "dtype": "float32"}, {"name": "conv2d_718/kernel", "shape": [1, 1, 768, 192], "dtype": "float32"}, {"name": "conv2d_719/kernel", "shape": [1, 1, 768, 192], "dtype": "float32"}, {"name": "conv2d_720/kernel", "shape": [1, 7, 192, 192], "dtype": "float32"}, {"name": "conv2d_721/kernel", "shape": [7, 1, 192, 192], "dtype": "float32"}, {"name": "conv2d_722/kernel", "shape": [1, 1, 768, 192], "dtype": "float32"}, {"name": "conv2d_723/kernel", "shape": [7, 1, 192, 192], "dtype": "float32"}, {"name": "conv2d_724/kernel", "shape": [1, 7, 192, 192], "dtype": "float32"}, {"name": "conv2d_725/kernel", "shape": [7, 1, 192, 192], "dtype": "float32"}, {"name": "conv2d_726/kernel", "shape": [1, 7, 192, 192], "dtype": "float32"}, {"name": "conv2d_727/kernel", "shape": [1, 1, 768, 192], "dtype": "float32"}, {"name": "dense_14/kernel", "shape": [37632, 64], "dtype": "float32"}, {"name": "dense_14/bias", "shape": [64], "dtype": "float32"}, {"name": "dense_15/kernel", "shape": [64, 3], "dtype": "float32"}, {"name": "dense_15/bias", "shape": [3], "dtype": "float32"}]}]}